input: "data"
input_shape {
  dim: 1
  dim: 3
  dim: 500
  dim: 500
}
layer {
  name: "conv1"
  type: "Convolution"
  bottom: "data"
  top: "conv1"
  param {
    lr_mult: 1.0
  }
  convolution_param {
    num_output: 64
    bias_term: false
    pad: 3
    kernel_size: 7
    stride: 1
  }
}
layer {
  name: "bn_conv1"
  type: "BatchNorm"
  bottom: "conv1"
  top: "conv1"
  param {
    lr_mult: 0.0
  }
  param {
    lr_mult: 0.0
  }
  param {
    lr_mult: 0.0
  }
  batch_norm_param {
    use_global_stats: true
  }
}
layer {
  name: "scale_conv1"
  type: "Scale"
  bottom: "conv1"
  top: "conv1"
  param {
    lr_mult: 0.0
  }
  param {
    lr_mult: 0.0
  }
  scale_param {
    bias_term: true
  }
}
layer {
  name: "conv1_relu"
  type: "ReLU"
  bottom: "conv1"
  top: "conv1"
}
layer {
  name: "pool1"
  type: "Pooling"
  bottom: "conv1"
  top: "pool1"
  pooling_param {
    pool: MAX
    kernel_size: 3
    stride: 2
  }
}
layer {
  name: "res2a_branch1"
  type: "Convolution"
  bottom: "pool1"
  top: "res2a_branch1"
  param {
    lr_mult: 1.0
  }
  convolution_param {
    num_output: 256
    bias_term: false
    pad: 0
    kernel_size: 1
    stride: 1
  }
}
layer {
  name: "bn2a_branch1"
  type: "BatchNorm"
  bottom: "res2a_branch1"
  top: "res2a_branch1"
  param {
    lr_mult: 0.0
  }
  param {
    lr_mult: 0.0
  }
  param {
    lr_mult: 0.0
  }
  batch_norm_param {
    use_global_stats: true
  }
}
layer {
  name: "scale2a_branch1"
  type: "Scale"
  bottom: "res2a_branch1"
  top: "res2a_branch1"
  param {
    lr_mult: 0.0
  }
  param {
    lr_mult: 0.0
  }
  scale_param {
    bias_term: true
  }
}
layer {
  name: "res2a_branch2a"
  type: "Convolution"
  bottom: "pool1"
  top: "res2a_branch2a"
  param {
    lr_mult: 1.0
  }
  convolution_param {
    num_output: 64
    bias_term: false
    pad: 0
    kernel_size: 1
    stride: 1
  }
}
layer {
  name: "bn2a_branch2a"
  type: "BatchNorm"
  bottom: "res2a_branch2a"
  top: "res2a_branch2a"
  param {
    lr_mult: 0.0
  }
  param {
    lr_mult: 0.0
  }
  param {
    lr_mult: 0.0
  }
  batch_norm_param {
    use_global_stats: true
  }
}
layer {
  name: "scale2a_branch2a"
  type: "Scale"
  bottom: "res2a_branch2a"
  top: "res2a_branch2a"
  param {
    lr_mult: 0.0
  }
  param {
    lr_mult: 0.0
  }
  scale_param {
    bias_term: true
  }
}
layer {
  name: "res2a_branch2a_relu"
  type: "ReLU"
  bottom: "res2a_branch2a"
  top: "res2a_branch2a"
}
layer {
  name: "res2a_branch2b"
  type: "Convolution"
  bottom: "res2a_branch2a"
  top: "res2a_branch2b"
  param {
    lr_mult: 1.0
  }
  convolution_param {
    num_output: 64
    bias_term: false
    pad: 2
    kernel_size: 3
    stride: 1
    dilation: 2
  }
}
layer {
  name: "bn2a_branch2b"
  type: "BatchNorm"
  bottom: "res2a_branch2b"
  top: "res2a_branch2b"
  param {
    lr_mult: 0.0
  }
  param {
    lr_mult: 0.0
  }
  param {
    lr_mult: 0.0
  }
  batch_norm_param {
    use_global_stats: true
  }
}
layer {
  name: "scale2a_branch2b"
  type: "Scale"
  bottom: "res2a_branch2b"
  top: "res2a_branch2b"
  param {
    lr_mult: 0.0
  }
  param {
    lr_mult: 0.0
  }
  scale_param {
    bias_term: true
  }
}
layer {
  name: "res2a_branch2b_relu"
  type: "ReLU"
  bottom: "res2a_branch2b"
  top: "res2a_branch2b"
}
layer {
  name: "res2a_branch2c"
  type: "Convolution"
  bottom: "res2a_branch2b"
  top: "res2a_branch2c"
  param {
    lr_mult: 1.0
  }
  convolution_param {
    num_output: 256
    bias_term: false
    pad: 0
    kernel_size: 1
    stride: 1
  }
}
layer {
  name: "bn2a_branch2c"
  type: "BatchNorm"
  bottom: "res2a_branch2c"
  top: "res2a_branch2c"
  param {
    lr_mult: 0.0
  }
  param {
    lr_mult: 0.0
  }
  param {
    lr_mult: 0.0
  }
  batch_norm_param {
    use_global_stats: true
  }
}
layer {
  name: "scale2a_branch2c"
  type: "Scale"
  bottom: "res2a_branch2c"
  top: "res2a_branch2c"
  param {
    lr_mult: 0.0
  }
  param {
    lr_mult: 0.0
  }
  scale_param {
    bias_term: true
  }
}
layer {
  name: "res2a"
  type: "Eltwise"
  bottom: "res2a_branch1"
  bottom: "res2a_branch2c"
  top: "res2a"
  eltwise_param {
    operation: SUM
  }
}
layer {
  name: "res2a_relu"
  type: "ReLU"
  bottom: "res2a"
  top: "res2a"
}
layer {
  name: "res2b_branch2a"
  type: "Convolution"
  bottom: "res2a"
  top: "res2b_branch2a"
  param {
    lr_mult: 1.0
  }
  convolution_param {
    num_output: 64
    bias_term: false
    pad: 0
    kernel_size: 1
    stride: 1
  }
}
layer {
  name: "bn2b_branch2a"
  type: "BatchNorm"
  bottom: "res2b_branch2a"
  top: "res2b_branch2a"
  param {
    lr_mult: 0.0
  }
  param {
    lr_mult: 0.0
  }
  param {
    lr_mult: 0.0
  }
  batch_norm_param {
    use_global_stats: true
  }
}
layer {
  name: "scale2b_branch2a"
  type: "Scale"
  bottom: "res2b_branch2a"
  top: "res2b_branch2a"
  param {
    lr_mult: 0.0
  }
  param {
    lr_mult: 0.0
  }
  scale_param {
    bias_term: true
  }
}
layer {
  name: "res2b_branch2a_relu"
  type: "ReLU"
  bottom: "res2b_branch2a"
  top: "res2b_branch2a"
}
layer {
  name: "res2b_branch2b"
  type: "Convolution"
  bottom: "res2b_branch2a"
  top: "res2b_branch2b"
  param {
    lr_mult: 1.0
  }
  convolution_param {
    num_output: 64
    bias_term: false
    pad: 2
    kernel_size: 3
    stride: 1
    dilation: 2
  }
}
layer {
  name: "bn2b_branch2b"
  type: "BatchNorm"
  bottom: "res2b_branch2b"
  top: "res2b_branch2b"
  param {
    lr_mult: 0.0
  }
  param {
    lr_mult: 0.0
  }
  param {
    lr_mult: 0.0
  }
  batch_norm_param {
    use_global_stats: true
  }
}
layer {
  name: "scale2b_branch2b"
  type: "Scale"
  bottom: "res2b_branch2b"
  top: "res2b_branch2b"
  param {
    lr_mult: 0.0
  }
  param {
    lr_mult: 0.0
  }
  scale_param {
    bias_term: true
  }
}
layer {
  name: "res2b_branch2b_relu"
  type: "ReLU"
  bottom: "res2b_branch2b"
  top: "res2b_branch2b"
}
layer {
  name: "res2b_branch2c"
  type: "Convolution"
  bottom: "res2b_branch2b"
  top: "res2b_branch2c"
  param {
    lr_mult: 1.0
  }
  convolution_param {
    num_output: 256
    bias_term: false
    pad: 0
    kernel_size: 1
    stride: 1
  }
}
layer {
  name: "bn2b_branch2c"
  type: "BatchNorm"
  bottom: "res2b_branch2c"
  top: "res2b_branch2c"
  param {
    lr_mult: 0.0
  }
  param {
    lr_mult: 0.0
  }
  param {
    lr_mult: 0.0
  }
  batch_norm_param {
    use_global_stats: true
  }
}
layer {
  name: "scale2b_branch2c"
  type: "Scale"
  bottom: "res2b_branch2c"
  top: "res2b_branch2c"
  param {
    lr_mult: 0.0
  }
  param {
    lr_mult: 0.0
  }
  scale_param {
    bias_term: true
  }
}
layer {
  name: "res2b"
  type: "Eltwise"
  bottom: "res2a"
  bottom: "res2b_branch2c"
  top: "res2b"
  eltwise_param {
    operation: SUM
  }
}
layer {
  name: "res2b_relu"
  type: "ReLU"
  bottom: "res2b"
  top: "res2b"
}
layer {
  name: "res2c_branch2a"
  type: "Convolution"
  bottom: "res2b"
  top: "res2c_branch2a"
  param {
    lr_mult: 1.0
  }
  convolution_param {
    num_output: 64
    bias_term: false
    pad: 0
    kernel_size: 1
    stride: 1
  }
}
layer {
  name: "bn2c_branch2a"
  type: "BatchNorm"
  bottom: "res2c_branch2a"
  top: "res2c_branch2a"
  param {
    lr_mult: 0.0
  }
  param {
    lr_mult: 0.0
  }
  param {
    lr_mult: 0.0
  }
  batch_norm_param {
    use_global_stats: true
  }
}
layer {
  name: "scale2c_branch2a"
  type: "Scale"
  bottom: "res2c_branch2a"
  top: "res2c_branch2a"
  param {
    lr_mult: 0.0
  }
  param {
    lr_mult: 0.0
  }
  scale_param {
    bias_term: true
  }
}
layer {
  name: "res2c_branch2a_relu"
  type: "ReLU"
  bottom: "res2c_branch2a"
  top: "res2c_branch2a"
}
layer {
  name: "res2c_branch2b"
  type: "Convolution"
  bottom: "res2c_branch2a"
  top: "res2c_branch2b"
  param {
    lr_mult: 1.0
  }
  convolution_param {
    num_output: 64
    bias_term: false
    pad: 2
    kernel_size: 3
    stride: 1
    dilation: 2
  }
}
layer {
  name: "bn2c_branch2b"
  type: "BatchNorm"
  bottom: "res2c_branch2b"
  top: "res2c_branch2b"
  param {
    lr_mult: 0.0
  }
  param {
    lr_mult: 0.0
  }
  param {
    lr_mult: 0.0
  }
  batch_norm_param {
    use_global_stats: true
  }
}
layer {
  name: "scale2c_branch2b"
  type: "Scale"
  bottom: "res2c_branch2b"
  top: "res2c_branch2b"
  param {
    lr_mult: 0.0
  }
  param {
    lr_mult: 0.0
  }
  scale_param {
    bias_term: true
  }
}
layer {
  name: "res2c_branch2b_relu"
  type: "ReLU"
  bottom: "res2c_branch2b"
  top: "res2c_branch2b"
}
layer {
  name: "res2c_branch2c"
  type: "Convolution"
  bottom: "res2c_branch2b"
  top: "res2c_branch2c"
  param {
    lr_mult: 1.0
  }
  convolution_param {
    num_output: 256
    bias_term: false
    pad: 0
    kernel_size: 1
    stride: 1
  }
}
layer {
  name: "bn2c_branch2c"
  type: "BatchNorm"
  bottom: "res2c_branch2c"
  top: "res2c_branch2c"
  param {
    lr_mult: 0.0
  }
  param {
    lr_mult: 0.0
  }
  param {
    lr_mult: 0.0
  }
  batch_norm_param {
    use_global_stats: true
  }
}
layer {
  name: "scale2c_branch2c"
  type: "Scale"
  bottom: "res2c_branch2c"
  top: "res2c_branch2c"
  param {
    lr_mult: 0.0
  }
  param {
    lr_mult: 0.0
  }
  scale_param {
    bias_term: true
  }
}
layer {
  name: "res2c"
  type: "Eltwise"
  bottom: "res2b"
  bottom: "res2c_branch2c"
  top: "res2c"
  eltwise_param {
    operation: SUM
  }
}
layer {
  name: "res2c_relu"
  type: "ReLU"
  bottom: "res2c"
  top: "res2c"
}
layer {
  name: "res3a_branch1"
  type: "Convolution"
  bottom: "res2c"
  top: "res3a_branch1"
  param {
    lr_mult: 1.0
  }
  convolution_param {
    num_output: 512
    bias_term: false
    pad: 0
    kernel_size: 1
    stride: 2
  }
}
layer {
  name: "bn3a_branch1"
  type: "BatchNorm"
  bottom: "res3a_branch1"
  top: "res3a_branch1"
  param {
    lr_mult: 0.0
  }
  param {
    lr_mult: 0.0
  }
  param {
    lr_mult: 0.0
  }
  batch_norm_param {
    use_global_stats: true
  }
}
layer {
  name: "scale3a_branch1"
  type: "Scale"
  bottom: "res3a_branch1"
  top: "res3a_branch1"
  param {
    lr_mult: 0.0
  }
  param {
    lr_mult: 0.0
  }
  scale_param {
    bias_term: true
  }
}
layer {
  name: "res3a_branch2a"
  type: "Convolution"
  bottom: "res2c"
  top: "res3a_branch2a"
  param {
    lr_mult: 1.0
  }
  convolution_param {
    num_output: 128
    bias_term: false
    pad: 0
    kernel_size: 1
    stride: 2
  }
}
layer {
  name: "bn3a_branch2a"
  type: "BatchNorm"
  bottom: "res3a_branch2a"
  top: "res3a_branch2a"
  param {
    lr_mult: 0.0
  }
  param {
    lr_mult: 0.0
  }
  param {
    lr_mult: 0.0
  }
  batch_norm_param {
    use_global_stats: true
  }
}
layer {
  name: "scale3a_branch2a"
  type: "Scale"
  bottom: "res3a_branch2a"
  top: "res3a_branch2a"
  param {
    lr_mult: 0.0
  }
  param {
    lr_mult: 0.0
  }
  scale_param {
    bias_term: true
  }
}
layer {
  name: "res3a_branch2a_relu"
  type: "ReLU"
  bottom: "res3a_branch2a"
  top: "res3a_branch2a"
}
layer {
  name: "res3a_branch2b"
  type: "Convolution"
  bottom: "res3a_branch2a"
  top: "res3a_branch2b"
  param {
    lr_mult: 1.0
  }
  convolution_param {
    num_output: 128
    bias_term: false
    pad: 2
    kernel_size: 3
    stride: 1
    dilation: 2
  }
}
layer {
  name: "bn3a_branch2b"
  type: "BatchNorm"
  bottom: "res3a_branch2b"
  top: "res3a_branch2b"
  param {
    lr_mult: 0.0
  }
  param {
    lr_mult: 0.0
  }
  param {
    lr_mult: 0.0
  }
  batch_norm_param {
    use_global_stats: true
  }
}
layer {
  name: "scale3a_branch2b"
  type: "Scale"
  bottom: "res3a_branch2b"
  top: "res3a_branch2b"
  param {
    lr_mult: 0.0
  }
  param {
    lr_mult: 0.0
  }
  scale_param {
    bias_term: true
  }
}
layer {
  name: "res3a_branch2b_relu"
  type: "ReLU"
  bottom: "res3a_branch2b"
  top: "res3a_branch2b"
}
layer {
  name: "res3a_branch2c"
  type: "Convolution"
  bottom: "res3a_branch2b"
  top: "res3a_branch2c"
  param {
    lr_mult: 1.0
  }
  convolution_param {
    num_output: 512
    bias_term: false
    pad: 0
    kernel_size: 1
    stride: 1
  }
}
layer {
  name: "bn3a_branch2c"
  type: "BatchNorm"
  bottom: "res3a_branch2c"
  top: "res3a_branch2c"
  param {
    lr_mult: 0.0
  }
  param {
    lr_mult: 0.0
  }
  param {
    lr_mult: 0.0
  }
  batch_norm_param {
    use_global_stats: true
  }
}
layer {
  name: "scale3a_branch2c"
  type: "Scale"
  bottom: "res3a_branch2c"
  top: "res3a_branch2c"
  param {
    lr_mult: 0.0
  }
  param {
    lr_mult: 0.0
  }
  scale_param {
    bias_term: true
  }
}
layer {
  name: "res3a"
  type: "Eltwise"
  bottom: "res3a_branch1"
  bottom: "res3a_branch2c"
  top: "res3a"
  eltwise_param {
    operation: SUM
  }
}
layer {
  name: "res3a_relu"
  type: "ReLU"
  bottom: "res3a"
  top: "res3a"
}
layer {
  name: "res3b1_branch2a"
  type: "Convolution"
  bottom: "res3a"
  top: "res3b1_branch2a"
  param {
    lr_mult: 1.0
  }
  convolution_param {
    num_output: 128
    bias_term: false
    pad: 0
    kernel_size: 1
    stride: 1
  }
}
layer {
  name: "bn3b1_branch2a"
  type: "BatchNorm"
  bottom: "res3b1_branch2a"
  top: "res3b1_branch2a"
  param {
    lr_mult: 0.0
  }
  param {
    lr_mult: 0.0
  }
  param {
    lr_mult: 0.0
  }
  batch_norm_param {
    use_global_stats: true
  }
}
layer {
  name: "scale3b1_branch2a"
  type: "Scale"
  bottom: "res3b1_branch2a"
  top: "res3b1_branch2a"
  param {
    lr_mult: 0.0
  }
  param {
    lr_mult: 0.0
  }
  scale_param {
    bias_term: true
  }
}
layer {
  name: "res3b1_branch2a_relu"
  type: "ReLU"
  bottom: "res3b1_branch2a"
  top: "res3b1_branch2a"
}
layer {
  name: "res3b1_branch2b"
  type: "Convolution"
  bottom: "res3b1_branch2a"
  top: "res3b1_branch2b"
  param {
    lr_mult: 1.0
  }
  convolution_param {
    num_output: 128
    bias_term: false
    pad: 2
    kernel_size: 3
    stride: 1
    dilation: 2
  }
}
layer {
  name: "bn3b1_branch2b"
  type: "BatchNorm"
  bottom: "res3b1_branch2b"
  top: "res3b1_branch2b"
  param {
    lr_mult: 0.0
  }
  param {
    lr_mult: 0.0
  }
  param {
    lr_mult: 0.0
  }
  batch_norm_param {
    use_global_stats: true
  }
}
layer {
  name: "scale3b1_branch2b"
  type: "Scale"
  bottom: "res3b1_branch2b"
  top: "res3b1_branch2b"
  param {
    lr_mult: 0.0
  }
  param {
    lr_mult: 0.0
  }
  scale_param {
    bias_term: true
  }
}
layer {
  name: "res3b1_branch2b_relu"
  type: "ReLU"
  bottom: "res3b1_branch2b"
  top: "res3b1_branch2b"
}
layer {
  name: "res3b1_branch2c"
  type: "Convolution"
  bottom: "res3b1_branch2b"
  top: "res3b1_branch2c"
  param {
    lr_mult: 1.0
  }
  convolution_param {
    num_output: 512
    bias_term: false
    pad: 0
    kernel_size: 1
    stride: 1
  }
}
layer {
  name: "bn3b1_branch2c"
  type: "BatchNorm"
  bottom: "res3b1_branch2c"
  top: "res3b1_branch2c"
  param {
    lr_mult: 0.0
  }
  param {
    lr_mult: 0.0
  }
  param {
    lr_mult: 0.0
  }
  batch_norm_param {
    use_global_stats: true
  }
}
layer {
  name: "scale3b1_branch2c"
  type: "Scale"
  bottom: "res3b1_branch2c"
  top: "res3b1_branch2c"
  param {
    lr_mult: 0.0
  }
  param {
    lr_mult: 0.0
  }
  scale_param {
    bias_term: true
  }
}
layer {
  name: "res3b1"
  type: "Eltwise"
  bottom: "res3a"
  bottom: "res3b1_branch2c"
  top: "res3b1"
  eltwise_param {
    operation: SUM
  }
}
layer {
  name: "res3b1_relu"
  type: "ReLU"
  bottom: "res3b1"
  top: "res3b1"
}
layer {
  name: "res3b2_branch2a"
  type: "Convolution"
  bottom: "res3b1"
  top: "res3b2_branch2a"
  param {
    lr_mult: 1.0
  }
  convolution_param {
    num_output: 128
    bias_term: false
    pad: 0
    kernel_size: 1
    stride: 1
  }
}
layer {
  name: "bn3b2_branch2a"
  type: "BatchNorm"
  bottom: "res3b2_branch2a"
  top: "res3b2_branch2a"
  param {
    lr_mult: 0.0
  }
  param {
    lr_mult: 0.0
  }
  param {
    lr_mult: 0.0
  }
  batch_norm_param {
    use_global_stats: true
  }
}
layer {
  name: "scale3b2_branch2a"
  type: "Scale"
  bottom: "res3b2_branch2a"
  top: "res3b2_branch2a"
  param {
    lr_mult: 0.0
  }
  param {
    lr_mult: 0.0
  }
  scale_param {
    bias_term: true
  }
}
layer {
  name: "res3b2_branch2a_relu"
  type: "ReLU"
  bottom: "res3b2_branch2a"
  top: "res3b2_branch2a"
}
layer {
  name: "res3b2_branch2b"
  type: "Convolution"
  bottom: "res3b2_branch2a"
  top: "res3b2_branch2b"
  param {
    lr_mult: 1.0
  }
  convolution_param {
    num_output: 128
    bias_term: false
    pad: 2
    kernel_size: 3
    stride: 1
    dilation: 2
  }
}
layer {
  name: "bn3b2_branch2b"
  type: "BatchNorm"
  bottom: "res3b2_branch2b"
  top: "res3b2_branch2b"
  param {
    lr_mult: 0.0
  }
  param {
    lr_mult: 0.0
  }
  param {
    lr_mult: 0.0
  }
  batch_norm_param {
    use_global_stats: true
  }
}
layer {
  name: "scale3b2_branch2b"
  type: "Scale"
  bottom: "res3b2_branch2b"
  top: "res3b2_branch2b"
  param {
    lr_mult: 0.0
  }
  param {
    lr_mult: 0.0
  }
  scale_param {
    bias_term: true
  }
}
layer {
  name: "res3b2_branch2b_relu"
  type: "ReLU"
  bottom: "res3b2_branch2b"
  top: "res3b2_branch2b"
}
layer {
  name: "res3b2_branch2c"
  type: "Convolution"
  bottom: "res3b2_branch2b"
  top: "res3b2_branch2c"
  param {
    lr_mult: 1.0
  }
  convolution_param {
    num_output: 512
    bias_term: false
    pad: 0
    kernel_size: 1
    stride: 1
  }
}
layer {
  name: "bn3b2_branch2c"
  type: "BatchNorm"
  bottom: "res3b2_branch2c"
  top: "res3b2_branch2c"
  param {
    lr_mult: 0.0
  }
  param {
    lr_mult: 0.0
  }
  param {
    lr_mult: 0.0
  }
  batch_norm_param {
    use_global_stats: true
  }
}
layer {
  name: "scale3b2_branch2c"
  type: "Scale"
  bottom: "res3b2_branch2c"
  top: "res3b2_branch2c"
  param {
    lr_mult: 0.0
  }
  param {
    lr_mult: 0.0
  }
  scale_param {
    bias_term: true
  }
}
layer {
  name: "res3b2"
  type: "Eltwise"
  bottom: "res3b1"
  bottom: "res3b2_branch2c"
  top: "res3b2"
  eltwise_param {
    operation: SUM
  }
}
layer {
  name: "res3b2_relu"
  type: "ReLU"
  bottom: "res3b2"
  top: "res3b2"
}
layer {
  name: "res3b3_branch2a"
  type: "Convolution"
  bottom: "res3b2"
  top: "res3b3_branch2a"
  param {
    lr_mult: 1.0
  }
  convolution_param {
    num_output: 128
    bias_term: false
    pad: 0
    kernel_size: 1
    stride: 1
  }
}
layer {
  name: "bn3b3_branch2a"
  type: "BatchNorm"
  bottom: "res3b3_branch2a"
  top: "res3b3_branch2a"
  param {
    lr_mult: 0.0
  }
  param {
    lr_mult: 0.0
  }
  param {
    lr_mult: 0.0
  }
  batch_norm_param {
    use_global_stats: true
  }
}
layer {
  name: "scale3b3_branch2a"
  type: "Scale"
  bottom: "res3b3_branch2a"
  top: "res3b3_branch2a"
  param {
    lr_mult: 0.0
  }
  param {
    lr_mult: 0.0
  }
  scale_param {
    bias_term: true
  }
}
layer {
  name: "res3b3_branch2a_relu"
  type: "ReLU"
  bottom: "res3b3_branch2a"
  top: "res3b3_branch2a"
}
layer {
  name: "res3b3_branch2b"
  type: "Convolution"
  bottom: "res3b3_branch2a"
  top: "res3b3_branch2b"
  param {
    lr_mult: 1.0
  }
  convolution_param {
    num_output: 128
    bias_term: false
    pad: 2
    kernel_size: 3
    stride: 1
    dilation: 2
  }
}
layer {
  name: "bn3b3_branch2b"
  type: "BatchNorm"
  bottom: "res3b3_branch2b"
  top: "res3b3_branch2b"
  param {
    lr_mult: 0.0
  }
  param {
    lr_mult: 0.0
  }
  param {
    lr_mult: 0.0
  }
  batch_norm_param {
    use_global_stats: true
  }
}
layer {
  name: "scale3b3_branch2b"
  type: "Scale"
  bottom: "res3b3_branch2b"
  top: "res3b3_branch2b"
  param {
    lr_mult: 0.0
  }
  param {
    lr_mult: 0.0
  }
  scale_param {
    bias_term: true
  }
}
layer {
  name: "res3b3_branch2b_relu"
  type: "ReLU"
  bottom: "res3b3_branch2b"
  top: "res3b3_branch2b"
}
layer {
  name: "res3b3_branch2c"
  type: "Convolution"
  bottom: "res3b3_branch2b"
  top: "res3b3_branch2c"
  param {
    lr_mult: 1.0
  }
  convolution_param {
    num_output: 512
    bias_term: false
    pad: 0
    kernel_size: 1
    stride: 1
  }
}
layer {
  name: "bn3b3_branch2c"
  type: "BatchNorm"
  bottom: "res3b3_branch2c"
  top: "res3b3_branch2c"
  param {
    lr_mult: 0.0
  }
  param {
    lr_mult: 0.0
  }
  param {
    lr_mult: 0.0
  }
  batch_norm_param {
    use_global_stats: true
  }
}
layer {
  name: "scale3b3_branch2c"
  type: "Scale"
  bottom: "res3b3_branch2c"
  top: "res3b3_branch2c"
  param {
    lr_mult: 0.0
  }
  param {
    lr_mult: 0.0
  }
  scale_param {
    bias_term: true
  }
}
layer {
  name: "res3b3"
  type: "Eltwise"
  bottom: "res3b2"
  bottom: "res3b3_branch2c"
  top: "res3b3"
  eltwise_param {
    operation: SUM
  }
}
layer {
  name: "res3b3_relu"
  type: "ReLU"
  bottom: "res3b3"
  top: "res3b3"
}
layer {
  name: "res4a_branch1"
  type: "Convolution"
  bottom: "res3b3"
  top: "res4a_branch1"
  param {
    lr_mult: 1.0
  }
  convolution_param {
    num_output: 1024
    bias_term: false
    pad: 0
    kernel_size: 1
    stride: 2
  }
}
layer {
  name: "bn4a_branch1"
  type: "BatchNorm"
  bottom: "res4a_branch1"
  top: "res4a_branch1"
  param {
    lr_mult: 0.0
  }
  param {
    lr_mult: 0.0
  }
  param {
    lr_mult: 0.0
  }
  batch_norm_param {
    use_global_stats: true
  }
}
layer {
  name: "scale4a_branch1"
  type: "Scale"
  bottom: "res4a_branch1"
  top: "res4a_branch1"
  param {
    lr_mult: 0.0
  }
  param {
    lr_mult: 0.0
  }
  scale_param {
    bias_term: true
  }
}
layer {
  name: "res4a_branch2a"
  type: "Convolution"
  bottom: "res3b3"
  top: "res4a_branch2a"
  param {
    lr_mult: 1.0
  }
  convolution_param {
    num_output: 256
    bias_term: false
    pad: 0
    kernel_size: 1
    stride: 2
  }
}
layer {
  name: "bn4a_branch2a"
  type: "BatchNorm"
  bottom: "res4a_branch2a"
  top: "res4a_branch2a"
  param {
    lr_mult: 0.0
  }
  param {
    lr_mult: 0.0
  }
  param {
    lr_mult: 0.0
  }
  batch_norm_param {
    use_global_stats: true
  }
}
layer {
  name: "scale4a_branch2a"
  type: "Scale"
  bottom: "res4a_branch2a"
  top: "res4a_branch2a"
  param {
    lr_mult: 0.0
  }
  param {
    lr_mult: 0.0
  }
  scale_param {
    bias_term: true
  }
}
layer {
  name: "res4a_branch2a_relu"
  type: "ReLU"
  bottom: "res4a_branch2a"
  top: "res4a_branch2a"
}
layer {
  name: "res4a_branch2b"
  type: "Convolution"
  bottom: "res4a_branch2a"
  top: "res4a_branch2b"
  param {
    lr_mult: 1.0
  }
  convolution_param {
    num_output: 256
    bias_term: false
    pad: 2
    kernel_size: 3
    stride: 1
    dilation: 2
  }
}
layer {
  name: "bn4a_branch2b"
  type: "BatchNorm"
  bottom: "res4a_branch2b"
  top: "res4a_branch2b"
  param {
    lr_mult: 0.0
  }
  param {
    lr_mult: 0.0
  }
  param {
    lr_mult: 0.0
  }
  batch_norm_param {
    use_global_stats: true
  }
}
layer {
  name: "scale4a_branch2b"
  type: "Scale"
  bottom: "res4a_branch2b"
  top: "res4a_branch2b"
  param {
    lr_mult: 0.0
  }
  param {
    lr_mult: 0.0
  }
  scale_param {
    bias_term: true
  }
}
layer {
  name: "res4a_branch2b_relu"
  type: "ReLU"
  bottom: "res4a_branch2b"
  top: "res4a_branch2b"
}
layer {
  name: "res4a_branch2c"
  type: "Convolution"
  bottom: "res4a_branch2b"
  top: "res4a_branch2c"
  param {
    lr_mult: 1.0
  }
  convolution_param {
    num_output: 1024
    bias_term: false
    pad: 0
    kernel_size: 1
    stride: 1
  }
}
layer {
  name: "bn4a_branch2c"
  type: "BatchNorm"
  bottom: "res4a_branch2c"
  top: "res4a_branch2c"
  param {
    lr_mult: 0.0
  }
  param {
    lr_mult: 0.0
  }
  param {
    lr_mult: 0.0
  }
  batch_norm_param {
    use_global_stats: true
  }
}
layer {
  name: "scale4a_branch2c"
  type: "Scale"
  bottom: "res4a_branch2c"
  top: "res4a_branch2c"
  param {
    lr_mult: 0.0
  }
  param {
    lr_mult: 0.0
  }
  scale_param {
    bias_term: true
  }
}
layer {
  name: "res4a"
  type: "Eltwise"
  bottom: "res4a_branch1"
  bottom: "res4a_branch2c"
  top: "res4a"
  eltwise_param {
    operation: SUM
  }
}
layer {
  name: "res4a_relu"
  type: "ReLU"
  bottom: "res4a"
  top: "res4a"
}
layer {
  name: "res4b1_branch2a"
  type: "Convolution"
  bottom: "res4a"
  top: "res4b1_branch2a"
  param {
    lr_mult: 1.0
  }
  convolution_param {
    num_output: 256
    bias_term: false
    pad: 0
    kernel_size: 1
    stride: 1
  }
}
layer {
  name: "bn4b1_branch2a"
  type: "BatchNorm"
  bottom: "res4b1_branch2a"
  top: "res4b1_branch2a"
  param {
    lr_mult: 0.0
  }
  param {
    lr_mult: 0.0
  }
  param {
    lr_mult: 0.0
  }
  batch_norm_param {
    use_global_stats: true
  }
}
layer {
  name: "scale4b1_branch2a"
  type: "Scale"
  bottom: "res4b1_branch2a"
  top: "res4b1_branch2a"
  param {
    lr_mult: 0.0
  }
  param {
    lr_mult: 0.0
  }
  scale_param {
    bias_term: true
  }
}
layer {
  name: "res4b1_branch2a_relu"
  type: "ReLU"
  bottom: "res4b1_branch2a"
  top: "res4b1_branch2a"
}
layer {
  name: "res4b1_branch2b"
  type: "Convolution"
  bottom: "res4b1_branch2a"
  top: "res4b1_branch2b"
  param {
    lr_mult: 1.0
  }
  convolution_param {
    num_output: 256
    bias_term: false
    pad: 2
    kernel_size: 3
    stride: 1
    dilation: 2
  }
}
layer {
  name: "bn4b1_branch2b"
  type: "BatchNorm"
  bottom: "res4b1_branch2b"
  top: "res4b1_branch2b"
  param {
    lr_mult: 0.0
  }
  param {
    lr_mult: 0.0
  }
  param {
    lr_mult: 0.0
  }
  batch_norm_param {
    use_global_stats: true
  }
}
layer {
  name: "scale4b1_branch2b"
  type: "Scale"
  bottom: "res4b1_branch2b"
  top: "res4b1_branch2b"
  param {
    lr_mult: 0.0
  }
  param {
    lr_mult: 0.0
  }
  scale_param {
    bias_term: true
  }
}
layer {
  name: "res4b1_branch2b_relu"
  type: "ReLU"
  bottom: "res4b1_branch2b"
  top: "res4b1_branch2b"
}
layer {
  name: "res4b1_branch2c"
  type: "Convolution"
  bottom: "res4b1_branch2b"
  top: "res4b1_branch2c"
  param {
    lr_mult: 1.0
  }
  convolution_param {
    num_output: 1024
    bias_term: false
    pad: 0
    kernel_size: 1
    stride: 1
  }
}
layer {
  name: "bn4b1_branch2c"
  type: "BatchNorm"
  bottom: "res4b1_branch2c"
  top: "res4b1_branch2c"
  param {
    lr_mult: 0.0
  }
  param {
    lr_mult: 0.0
  }
  param {
    lr_mult: 0.0
  }
  batch_norm_param {
    use_global_stats: true
  }
}
layer {
  name: "scale4b1_branch2c"
  type: "Scale"
  bottom: "res4b1_branch2c"
  top: "res4b1_branch2c"
  param {
    lr_mult: 0.0
  }
  param {
    lr_mult: 0.0
  }
  scale_param {
    bias_term: true
  }
}
layer {
  name: "res4b1"
  type: "Eltwise"
  bottom: "res4a"
  bottom: "res4b1_branch2c"
  top: "res4b1"
  eltwise_param {
    operation: SUM
  }
}
layer {
  name: "res4b1_relu"
  type: "ReLU"
  bottom: "res4b1"
  top: "res4b1"
}
layer {
  name: "res4b2_branch2a"
  type: "Convolution"
  bottom: "res4b1"
  top: "res4b2_branch2a"
  param {
    lr_mult: 1.0
  }
  convolution_param {
    num_output: 256
    bias_term: false
    pad: 0
    kernel_size: 1
    stride: 1
  }
}
layer {
  name: "bn4b2_branch2a"
  type: "BatchNorm"
  bottom: "res4b2_branch2a"
  top: "res4b2_branch2a"
  param {
    lr_mult: 0.0
  }
  param {
    lr_mult: 0.0
  }
  param {
    lr_mult: 0.0
  }
  batch_norm_param {
    use_global_stats: true
  }
}
layer {
  name: "scale4b2_branch2a"
  type: "Scale"
  bottom: "res4b2_branch2a"
  top: "res4b2_branch2a"
  param {
    lr_mult: 0.0
  }
  param {
    lr_mult: 0.0
  }
  scale_param {
    bias_term: true
  }
}
layer {
  name: "res4b2_branch2a_relu"
  type: "ReLU"
  bottom: "res4b2_branch2a"
  top: "res4b2_branch2a"
}
layer {
  name: "res4b2_branch2b"
  type: "Convolution"
  bottom: "res4b2_branch2a"
  top: "res4b2_branch2b"
  param {
    lr_mult: 1.0
  }
  convolution_param {
    num_output: 256
    bias_term: false
    pad: 2
    kernel_size: 3
    stride: 1
    dilation: 2
  }
}
layer {
  name: "bn4b2_branch2b"
  type: "BatchNorm"
  bottom: "res4b2_branch2b"
  top: "res4b2_branch2b"
  param {
    lr_mult: 0.0
  }
  param {
    lr_mult: 0.0
  }
  param {
    lr_mult: 0.0
  }
  batch_norm_param {
    use_global_stats: true
  }
}
layer {
  name: "scale4b2_branch2b"
  type: "Scale"
  bottom: "res4b2_branch2b"
  top: "res4b2_branch2b"
  param {
    lr_mult: 0.0
  }
  param {
    lr_mult: 0.0
  }
  scale_param {
    bias_term: true
  }
}
layer {
  name: "res4b2_branch2b_relu"
  type: "ReLU"
  bottom: "res4b2_branch2b"
  top: "res4b2_branch2b"
}
layer {
  name: "res4b2_branch2c"
  type: "Convolution"
  bottom: "res4b2_branch2b"
  top: "res4b2_branch2c"
  param {
    lr_mult: 1.0
  }
  convolution_param {
    num_output: 1024
    bias_term: false
    pad: 0
    kernel_size: 1
    stride: 1
  }
}
layer {
  name: "bn4b2_branch2c"
  type: "BatchNorm"
  bottom: "res4b2_branch2c"
  top: "res4b2_branch2c"
  param {
    lr_mult: 0.0
  }
  param {
    lr_mult: 0.0
  }
  param {
    lr_mult: 0.0
  }
  batch_norm_param {
    use_global_stats: true
  }
}
layer {
  name: "scale4b2_branch2c"
  type: "Scale"
  bottom: "res4b2_branch2c"
  top: "res4b2_branch2c"
  param {
    lr_mult: 0.0
  }
  param {
    lr_mult: 0.0
  }
  scale_param {
    bias_term: true
  }
}
layer {
  name: "res4b2"
  type: "Eltwise"
  bottom: "res4b1"
  bottom: "res4b2_branch2c"
  top: "res4b2"
  eltwise_param {
    operation: SUM
  }
}
layer {
  name: "res4b2_relu"
  type: "ReLU"
  bottom: "res4b2"
  top: "res4b2"
}
layer {
  name: "res4b3_branch2a"
  type: "Convolution"
  bottom: "res4b2"
  top: "res4b3_branch2a"
  param {
    lr_mult: 1.0
  }
  convolution_param {
    num_output: 256
    bias_term: false
    pad: 0
    kernel_size: 1
    stride: 1
  }
}
layer {
  name: "bn4b3_branch2a"
  type: "BatchNorm"
  bottom: "res4b3_branch2a"
  top: "res4b3_branch2a"
  param {
    lr_mult: 0.0
  }
  param {
    lr_mult: 0.0
  }
  param {
    lr_mult: 0.0
  }
  batch_norm_param {
    use_global_stats: true
  }
}
layer {
  name: "scale4b3_branch2a"
  type: "Scale"
  bottom: "res4b3_branch2a"
  top: "res4b3_branch2a"
  param {
    lr_mult: 0.0
  }
  param {
    lr_mult: 0.0
  }
  scale_param {
    bias_term: true
  }
}
layer {
  name: "res4b3_branch2a_relu"
  type: "ReLU"
  bottom: "res4b3_branch2a"
  top: "res4b3_branch2a"
}
layer {
  name: "res4b3_branch2b"
  type: "Convolution"
  bottom: "res4b3_branch2a"
  top: "res4b3_branch2b"
  param {
    lr_mult: 1.0
  }
  convolution_param {
    num_output: 256
    bias_term: false
    pad: 2
    kernel_size: 3
    stride: 1
    dilation: 2
  }
}
layer {
  name: "bn4b3_branch2b"
  type: "BatchNorm"
  bottom: "res4b3_branch2b"
  top: "res4b3_branch2b"
  param {
    lr_mult: 0.0
  }
  param {
    lr_mult: 0.0
  }
  param {
    lr_mult: 0.0
  }
  batch_norm_param {
    use_global_stats: true
  }
}
layer {
  name: "scale4b3_branch2b"
  type: "Scale"
  bottom: "res4b3_branch2b"
  top: "res4b3_branch2b"
  param {
    lr_mult: 0.0
  }
  param {
    lr_mult: 0.0
  }
  scale_param {
    bias_term: true
  }
}
layer {
  name: "res4b3_branch2b_relu"
  type: "ReLU"
  bottom: "res4b3_branch2b"
  top: "res4b3_branch2b"
}
layer {
  name: "res4b3_branch2c"
  type: "Convolution"
  bottom: "res4b3_branch2b"
  top: "res4b3_branch2c"
  param {
    lr_mult: 1.0
  }
  convolution_param {
    num_output: 1024
    bias_term: false
    pad: 0
    kernel_size: 1
    stride: 1
  }
}
layer {
  name: "bn4b3_branch2c"
  type: "BatchNorm"
  bottom: "res4b3_branch2c"
  top: "res4b3_branch2c"
  param {
    lr_mult: 0.0
  }
  param {
    lr_mult: 0.0
  }
  param {
    lr_mult: 0.0
  }
  batch_norm_param {
    use_global_stats: true
  }
}
layer {
  name: "scale4b3_branch2c"
  type: "Scale"
  bottom: "res4b3_branch2c"
  top: "res4b3_branch2c"
  param {
    lr_mult: 0.0
  }
  param {
    lr_mult: 0.0
  }
  scale_param {
    bias_term: true
  }
}
layer {
  name: "res4b3"
  type: "Eltwise"
  bottom: "res4b2"
  bottom: "res4b3_branch2c"
  top: "res4b3"
  eltwise_param {
    operation: SUM
  }
}
layer {
  name: "res4b3_relu"
  type: "ReLU"
  bottom: "res4b3"
  top: "res4b3"
}
layer {
  name: "res4b4_branch2a"
  type: "Convolution"
  bottom: "res4b3"
  top: "res4b4_branch2a"
  param {
    lr_mult: 1.0
  }
  convolution_param {
    num_output: 256
    bias_term: false
    pad: 0
    kernel_size: 1
    stride: 1
  }
}
layer {
  name: "bn4b4_branch2a"
  type: "BatchNorm"
  bottom: "res4b4_branch2a"
  top: "res4b4_branch2a"
  param {
    lr_mult: 0.0
  }
  param {
    lr_mult: 0.0
  }
  param {
    lr_mult: 0.0
  }
  batch_norm_param {
    use_global_stats: true
  }
}
layer {
  name: "scale4b4_branch2a"
  type: "Scale"
  bottom: "res4b4_branch2a"
  top: "res4b4_branch2a"
  param {
    lr_mult: 0.0
  }
  param {
    lr_mult: 0.0
  }
  scale_param {
    bias_term: true
  }
}
layer {
  name: "res4b4_branch2a_relu"
  type: "ReLU"
  bottom: "res4b4_branch2a"
  top: "res4b4_branch2a"
}
layer {
  name: "res4b4_branch2b"
  type: "Convolution"
  bottom: "res4b4_branch2a"
  top: "res4b4_branch2b"
  param {
    lr_mult: 1.0
  }
  convolution_param {
    num_output: 256
    bias_term: false
    pad: 2
    kernel_size: 3
    stride: 1
    dilation: 2
  }
}
layer {
  name: "bn4b4_branch2b"
  type: "BatchNorm"
  bottom: "res4b4_branch2b"
  top: "res4b4_branch2b"
  param {
    lr_mult: 0.0
  }
  param {
    lr_mult: 0.0
  }
  param {
    lr_mult: 0.0
  }
  batch_norm_param {
    use_global_stats: true
  }
}
layer {
  name: "scale4b4_branch2b"
  type: "Scale"
  bottom: "res4b4_branch2b"
  top: "res4b4_branch2b"
  param {
    lr_mult: 0.0
  }
  param {
    lr_mult: 0.0
  }
  scale_param {
    bias_term: true
  }
}
layer {
  name: "res4b4_branch2b_relu"
  type: "ReLU"
  bottom: "res4b4_branch2b"
  top: "res4b4_branch2b"
}
layer {
  name: "res4b4_branch2c"
  type: "Convolution"
  bottom: "res4b4_branch2b"
  top: "res4b4_branch2c"
  param {
    lr_mult: 1.0
  }
  convolution_param {
    num_output: 1024
    bias_term: false
    pad: 0
    kernel_size: 1
    stride: 1
  }
}
layer {
  name: "bn4b4_branch2c"
  type: "BatchNorm"
  bottom: "res4b4_branch2c"
  top: "res4b4_branch2c"
  param {
    lr_mult: 0.0
  }
  param {
    lr_mult: 0.0
  }
  param {
    lr_mult: 0.0
  }
  batch_norm_param {
    use_global_stats: true
  }
}
layer {
  name: "scale4b4_branch2c"
  type: "Scale"
  bottom: "res4b4_branch2c"
  top: "res4b4_branch2c"
  param {
    lr_mult: 0.0
  }
  param {
    lr_mult: 0.0
  }
  scale_param {
    bias_term: true
  }
}
layer {
  name: "res4b4"
  type: "Eltwise"
  bottom: "res4b3"
  bottom: "res4b4_branch2c"
  top: "res4b4"
  eltwise_param {
    operation: SUM
  }
}
layer {
  name: "res4b4_relu"
  type: "ReLU"
  bottom: "res4b4"
  top: "res4b4"
}
layer {
  name: "res4b5_branch2a"
  type: "Convolution"
  bottom: "res4b4"
  top: "res4b5_branch2a"
  param {
    lr_mult: 1.0
  }
  convolution_param {
    num_output: 256
    bias_term: false
    pad: 0
    kernel_size: 1
    stride: 1
  }
}
layer {
  name: "bn4b5_branch2a"
  type: "BatchNorm"
  bottom: "res4b5_branch2a"
  top: "res4b5_branch2a"
  param {
    lr_mult: 0.0
  }
  param {
    lr_mult: 0.0
  }
  param {
    lr_mult: 0.0
  }
  batch_norm_param {
    use_global_stats: true
  }
}
layer {
  name: "scale4b5_branch2a"
  type: "Scale"
  bottom: "res4b5_branch2a"
  top: "res4b5_branch2a"
  param {
    lr_mult: 0.0
  }
  param {
    lr_mult: 0.0
  }
  scale_param {
    bias_term: true
  }
}
layer {
  name: "res4b5_branch2a_relu"
  type: "ReLU"
  bottom: "res4b5_branch2a"
  top: "res4b5_branch2a"
}
layer {
  name: "res4b5_branch2b"
  type: "Convolution"
  bottom: "res4b5_branch2a"
  top: "res4b5_branch2b"
  param {
    lr_mult: 1.0
  }
  convolution_param {
    num_output: 256
    bias_term: false
    pad: 2
    kernel_size: 3
    stride: 1
    dilation: 2
  }
}
layer {
  name: "bn4b5_branch2b"
  type: "BatchNorm"
  bottom: "res4b5_branch2b"
  top: "res4b5_branch2b"
  param {
    lr_mult: 0.0
  }
  param {
    lr_mult: 0.0
  }
  param {
    lr_mult: 0.0
  }
  batch_norm_param {
    use_global_stats: true
  }
}
layer {
  name: "scale4b5_branch2b"
  type: "Scale"
  bottom: "res4b5_branch2b"
  top: "res4b5_branch2b"
  param {
    lr_mult: 0.0
  }
  param {
    lr_mult: 0.0
  }
  scale_param {
    bias_term: true
  }
}
layer {
  name: "res4b5_branch2b_relu"
  type: "ReLU"
  bottom: "res4b5_branch2b"
  top: "res4b5_branch2b"
}
layer {
  name: "res4b5_branch2c"
  type: "Convolution"
  bottom: "res4b5_branch2b"
  top: "res4b5_branch2c"
  param {
    lr_mult: 1.0
  }
  convolution_param {
    num_output: 1024
    bias_term: false
    pad: 0
    kernel_size: 1
    stride: 1
  }
}
layer {
  name: "bn4b5_branch2c"
  type: "BatchNorm"
  bottom: "res4b5_branch2c"
  top: "res4b5_branch2c"
  param {
    lr_mult: 0.0
  }
  param {
    lr_mult: 0.0
  }
  param {
    lr_mult: 0.0
  }
  batch_norm_param {
    use_global_stats: true
  }
}
layer {
  name: "scale4b5_branch2c"
  type: "Scale"
  bottom: "res4b5_branch2c"
  top: "res4b5_branch2c"
  param {
    lr_mult: 0.0
  }
  param {
    lr_mult: 0.0
  }
  scale_param {
    bias_term: true
  }
}
layer {
  name: "res4b5"
  type: "Eltwise"
  bottom: "res4b4"
  bottom: "res4b5_branch2c"
  top: "res4b5"
  eltwise_param {
    operation: SUM
  }
}
layer {
  name: "res4b5_relu"
  type: "ReLU"
  bottom: "res4b5"
  top: "res4b5"
}
layer {
  name: "res4b6_branch2a"
  type: "Convolution"
  bottom: "res4b5"
  top: "res4b6_branch2a"
  param {
    lr_mult: 1.0
  }
  convolution_param {
    num_output: 256
    bias_term: false
    pad: 0
    kernel_size: 1
    stride: 1
  }
}
layer {
  name: "bn4b6_branch2a"
  type: "BatchNorm"
  bottom: "res4b6_branch2a"
  top: "res4b6_branch2a"
  param {
    lr_mult: 0.0
  }
  param {
    lr_mult: 0.0
  }
  param {
    lr_mult: 0.0
  }
  batch_norm_param {
    use_global_stats: true
  }
}
layer {
  name: "scale4b6_branch2a"
  type: "Scale"
  bottom: "res4b6_branch2a"
  top: "res4b6_branch2a"
  param {
    lr_mult: 0.0
  }
  param {
    lr_mult: 0.0
  }
  scale_param {
    bias_term: true
  }
}
layer {
  name: "res4b6_branch2a_relu"
  type: "ReLU"
  bottom: "res4b6_branch2a"
  top: "res4b6_branch2a"
}
layer {
  name: "res4b6_branch2b"
  type: "Convolution"
  bottom: "res4b6_branch2a"
  top: "res4b6_branch2b"
  param {
    lr_mult: 1.0
  }
  convolution_param {
    num_output: 256
    bias_term: false
    pad: 2
    kernel_size: 3
    stride: 1
    dilation: 2
  }
}
layer {
  name: "bn4b6_branch2b"
  type: "BatchNorm"
  bottom: "res4b6_branch2b"
  top: "res4b6_branch2b"
  param {
    lr_mult: 0.0
  }
  param {
    lr_mult: 0.0
  }
  param {
    lr_mult: 0.0
  }
  batch_norm_param {
    use_global_stats: true
  }
}
layer {
  name: "scale4b6_branch2b"
  type: "Scale"
  bottom: "res4b6_branch2b"
  top: "res4b6_branch2b"
  param {
    lr_mult: 0.0
  }
  param {
    lr_mult: 0.0
  }
  scale_param {
    bias_term: true
  }
}
layer {
  name: "res4b6_branch2b_relu"
  type: "ReLU"
  bottom: "res4b6_branch2b"
  top: "res4b6_branch2b"
}
layer {
  name: "res4b6_branch2c"
  type: "Convolution"
  bottom: "res4b6_branch2b"
  top: "res4b6_branch2c"
  param {
    lr_mult: 1.0
  }
  convolution_param {
    num_output: 1024
    bias_term: false
    pad: 0
    kernel_size: 1
    stride: 1
  }
}
layer {
  name: "bn4b6_branch2c"
  type: "BatchNorm"
  bottom: "res4b6_branch2c"
  top: "res4b6_branch2c"
  param {
    lr_mult: 0.0
  }
  param {
    lr_mult: 0.0
  }
  param {
    lr_mult: 0.0
  }
  batch_norm_param {
    use_global_stats: true
  }
}
layer {
  name: "scale4b6_branch2c"
  type: "Scale"
  bottom: "res4b6_branch2c"
  top: "res4b6_branch2c"
  param {
    lr_mult: 0.0
  }
  param {
    lr_mult: 0.0
  }
  scale_param {
    bias_term: true
  }
}
layer {
  name: "res4b6"
  type: "Eltwise"
  bottom: "res4b5"
  bottom: "res4b6_branch2c"
  top: "res4b6"
  eltwise_param {
    operation: SUM
  }
}
layer {
  name: "res4b6_relu"
  type: "ReLU"
  bottom: "res4b6"
  top: "res4b6"
}
layer {
  name: "res4b7_branch2a"
  type: "Convolution"
  bottom: "res4b6"
  top: "res4b7_branch2a"
  param {
    lr_mult: 1.0
  }
  convolution_param {
    num_output: 256
    bias_term: false
    pad: 0
    kernel_size: 1
    stride: 1
  }
}
layer {
  name: "bn4b7_branch2a"
  type: "BatchNorm"
  bottom: "res4b7_branch2a"
  top: "res4b7_branch2a"
  param {
    lr_mult: 0.0
  }
  param {
    lr_mult: 0.0
  }
  param {
    lr_mult: 0.0
  }
  batch_norm_param {
    use_global_stats: true
  }
}
layer {
  name: "scale4b7_branch2a"
  type: "Scale"
  bottom: "res4b7_branch2a"
  top: "res4b7_branch2a"
  param {
    lr_mult: 0.0
  }
  param {
    lr_mult: 0.0
  }
  scale_param {
    bias_term: true
  }
}
layer {
  name: "res4b7_branch2a_relu"
  type: "ReLU"
  bottom: "res4b7_branch2a"
  top: "res4b7_branch2a"
}
layer {
  name: "res4b7_branch2b"
  type: "Convolution"
  bottom: "res4b7_branch2a"
  top: "res4b7_branch2b"
  param {
    lr_mult: 1.0
  }
  convolution_param {
    num_output: 256
    bias_term: false
    pad: 2
    kernel_size: 3
    stride: 1
    dilation: 2
  }
}
layer {
  name: "bn4b7_branch2b"
  type: "BatchNorm"
  bottom: "res4b7_branch2b"
  top: "res4b7_branch2b"
  param {
    lr_mult: 0.0
  }
  param {
    lr_mult: 0.0
  }
  param {
    lr_mult: 0.0
  }
  batch_norm_param {
    use_global_stats: true
  }
}
layer {
  name: "scale4b7_branch2b"
  type: "Scale"
  bottom: "res4b7_branch2b"
  top: "res4b7_branch2b"
  param {
    lr_mult: 0.0
  }
  param {
    lr_mult: 0.0
  }
  scale_param {
    bias_term: true
  }
}
layer {
  name: "res4b7_branch2b_relu"
  type: "ReLU"
  bottom: "res4b7_branch2b"
  top: "res4b7_branch2b"
}
layer {
  name: "res4b7_branch2c"
  type: "Convolution"
  bottom: "res4b7_branch2b"
  top: "res4b7_branch2c"
  param {
    lr_mult: 1.0
  }
  convolution_param {
    num_output: 1024
    bias_term: false
    pad: 0
    kernel_size: 1
    stride: 1
  }
}
layer {
  name: "bn4b7_branch2c"
  type: "BatchNorm"
  bottom: "res4b7_branch2c"
  top: "res4b7_branch2c"
  param {
    lr_mult: 0.0
  }
  param {
    lr_mult: 0.0
  }
  param {
    lr_mult: 0.0
  }
  batch_norm_param {
    use_global_stats: true
  }
}
layer {
  name: "scale4b7_branch2c"
  type: "Scale"
  bottom: "res4b7_branch2c"
  top: "res4b7_branch2c"
  param {
    lr_mult: 0.0
  }
  param {
    lr_mult: 0.0
  }
  scale_param {
    bias_term: true
  }
}
layer {
  name: "res4b7"
  type: "Eltwise"
  bottom: "res4b6"
  bottom: "res4b7_branch2c"
  top: "res4b7"
  eltwise_param {
    operation: SUM
  }
}
layer {
  name: "res4b7_relu"
  type: "ReLU"
  bottom: "res4b7"
  top: "res4b7"
}
layer {
  name: "res4b8_branch2a"
  type: "Convolution"
  bottom: "res4b7"
  top: "res4b8_branch2a"
  param {
    lr_mult: 1.0
  }
  convolution_param {
    num_output: 256
    bias_term: false
    pad: 0
    kernel_size: 1
    stride: 1
  }
}
layer {
  name: "bn4b8_branch2a"
  type: "BatchNorm"
  bottom: "res4b8_branch2a"
  top: "res4b8_branch2a"
  param {
    lr_mult: 0.0
  }
  param {
    lr_mult: 0.0
  }
  param {
    lr_mult: 0.0
  }
  batch_norm_param {
    use_global_stats: true
  }
}
layer {
  name: "scale4b8_branch2a"
  type: "Scale"
  bottom: "res4b8_branch2a"
  top: "res4b8_branch2a"
  param {
    lr_mult: 0.0
  }
  param {
    lr_mult: 0.0
  }
  scale_param {
    bias_term: true
  }
}
layer {
  name: "res4b8_branch2a_relu"
  type: "ReLU"
  bottom: "res4b8_branch2a"
  top: "res4b8_branch2a"
}
layer {
  name: "res4b8_branch2b"
  type: "Convolution"
  bottom: "res4b8_branch2a"
  top: "res4b8_branch2b"
  param {
    lr_mult: 1.0
  }
  convolution_param {
    num_output: 256
    bias_term: false
    pad: 2
    kernel_size: 3
    stride: 1
    dilation: 2
  }
}
layer {
  name: "bn4b8_branch2b"
  type: "BatchNorm"
  bottom: "res4b8_branch2b"
  top: "res4b8_branch2b"
  param {
    lr_mult: 0.0
  }
  param {
    lr_mult: 0.0
  }
  param {
    lr_mult: 0.0
  }
  batch_norm_param {
    use_global_stats: true
  }
}
layer {
  name: "scale4b8_branch2b"
  type: "Scale"
  bottom: "res4b8_branch2b"
  top: "res4b8_branch2b"
  param {
    lr_mult: 0.0
  }
  param {
    lr_mult: 0.0
  }
  scale_param {
    bias_term: true
  }
}
layer {
  name: "res4b8_branch2b_relu"
  type: "ReLU"
  bottom: "res4b8_branch2b"
  top: "res4b8_branch2b"
}
layer {
  name: "res4b8_branch2c"
  type: "Convolution"
  bottom: "res4b8_branch2b"
  top: "res4b8_branch2c"
  param {
    lr_mult: 1.0
  }
  convolution_param {
    num_output: 1024
    bias_term: false
    pad: 0
    kernel_size: 1
    stride: 1
  }
}
layer {
  name: "bn4b8_branch2c"
  type: "BatchNorm"
  bottom: "res4b8_branch2c"
  top: "res4b8_branch2c"
  param {
    lr_mult: 0.0
  }
  param {
    lr_mult: 0.0
  }
  param {
    lr_mult: 0.0
  }
  batch_norm_param {
    use_global_stats: true
  }
}
layer {
  name: "scale4b8_branch2c"
  type: "Scale"
  bottom: "res4b8_branch2c"
  top: "res4b8_branch2c"
  param {
    lr_mult: 0.0
  }
  param {
    lr_mult: 0.0
  }
  scale_param {
    bias_term: true
  }
}
layer {
  name: "res4b8"
  type: "Eltwise"
  bottom: "res4b7"
  bottom: "res4b8_branch2c"
  top: "res4b8"
  eltwise_param {
    operation: SUM
  }
}
layer {
  name: "res4b8_relu"
  type: "ReLU"
  bottom: "res4b8"
  top: "res4b8"
}
layer {
  name: "res4b9_branch2a"
  type: "Convolution"
  bottom: "res4b8"
  top: "res4b9_branch2a"
  param {
    lr_mult: 1.0
  }
  convolution_param {
    num_output: 256
    bias_term: false
    pad: 0
    kernel_size: 1
    stride: 1
  }
}
layer {
  name: "bn4b9_branch2a"
  type: "BatchNorm"
  bottom: "res4b9_branch2a"
  top: "res4b9_branch2a"
  param {
    lr_mult: 0.0
  }
  param {
    lr_mult: 0.0
  }
  param {
    lr_mult: 0.0
  }
  batch_norm_param {
    use_global_stats: true
  }
}
layer {
  name: "scale4b9_branch2a"
  type: "Scale"
  bottom: "res4b9_branch2a"
  top: "res4b9_branch2a"
  param {
    lr_mult: 0.0
  }
  param {
    lr_mult: 0.0
  }
  scale_param {
    bias_term: true
  }
}
layer {
  name: "res4b9_branch2a_relu"
  type: "ReLU"
  bottom: "res4b9_branch2a"
  top: "res4b9_branch2a"
}
layer {
  name: "res4b9_branch2b"
  type: "Convolution"
  bottom: "res4b9_branch2a"
  top: "res4b9_branch2b"
  param {
    lr_mult: 1.0
  }
  convolution_param {
    num_output: 256
    bias_term: false
    pad: 2
    kernel_size: 3
    stride: 1
    dilation: 2
  }
}
layer {
  name: "bn4b9_branch2b"
  type: "BatchNorm"
  bottom: "res4b9_branch2b"
  top: "res4b9_branch2b"
  param {
    lr_mult: 0.0
  }
  param {
    lr_mult: 0.0
  }
  param {
    lr_mult: 0.0
  }
  batch_norm_param {
    use_global_stats: true
  }
}
layer {
  name: "scale4b9_branch2b"
  type: "Scale"
  bottom: "res4b9_branch2b"
  top: "res4b9_branch2b"
  param {
    lr_mult: 0.0
  }
  param {
    lr_mult: 0.0
  }
  scale_param {
    bias_term: true
  }
}
layer {
  name: "res4b9_branch2b_relu"
  type: "ReLU"
  bottom: "res4b9_branch2b"
  top: "res4b9_branch2b"
}
layer {
  name: "res4b9_branch2c"
  type: "Convolution"
  bottom: "res4b9_branch2b"
  top: "res4b9_branch2c"
  param {
    lr_mult: 1.0
  }
  convolution_param {
    num_output: 1024
    bias_term: false
    pad: 0
    kernel_size: 1
    stride: 1
  }
}
layer {
  name: "bn4b9_branch2c"
  type: "BatchNorm"
  bottom: "res4b9_branch2c"
  top: "res4b9_branch2c"
  param {
    lr_mult: 0.0
  }
  param {
    lr_mult: 0.0
  }
  param {
    lr_mult: 0.0
  }
  batch_norm_param {
    use_global_stats: true
  }
}
layer {
  name: "scale4b9_branch2c"
  type: "Scale"
  bottom: "res4b9_branch2c"
  top: "res4b9_branch2c"
  param {
    lr_mult: 0.0
  }
  param {
    lr_mult: 0.0
  }
  scale_param {
    bias_term: true
  }
}
layer {
  name: "res4b9"
  type: "Eltwise"
  bottom: "res4b8"
  bottom: "res4b9_branch2c"
  top: "res4b9"
  eltwise_param {
    operation: SUM
  }
}
layer {
  name: "res4b9_relu"
  type: "ReLU"
  bottom: "res4b9"
  top: "res4b9"
}
layer {
  name: "res4b10_branch2a"
  type: "Convolution"
  bottom: "res4b9"
  top: "res4b10_branch2a"
  param {
    lr_mult: 1.0
  }
  convolution_param {
    num_output: 256
    bias_term: false
    pad: 0
    kernel_size: 1
    stride: 1
  }
}
layer {
  name: "bn4b10_branch2a"
  type: "BatchNorm"
  bottom: "res4b10_branch2a"
  top: "res4b10_branch2a"
  param {
    lr_mult: 0.0
  }
  param {
    lr_mult: 0.0
  }
  param {
    lr_mult: 0.0
  }
  batch_norm_param {
    use_global_stats: true
  }
}
layer {
  name: "scale4b10_branch2a"
  type: "Scale"
  bottom: "res4b10_branch2a"
  top: "res4b10_branch2a"
  param {
    lr_mult: 0.0
  }
  param {
    lr_mult: 0.0
  }
  scale_param {
    bias_term: true
  }
}
layer {
  name: "res4b10_branch2a_relu"
  type: "ReLU"
  bottom: "res4b10_branch2a"
  top: "res4b10_branch2a"
}
layer {
  name: "res4b10_branch2b"
  type: "Convolution"
  bottom: "res4b10_branch2a"
  top: "res4b10_branch2b"
  param {
    lr_mult: 1.0
  }
  convolution_param {
    num_output: 256
    bias_term: false
    pad: 2
    kernel_size: 3
    stride: 1
    dilation: 2
  }
}
layer {
  name: "bn4b10_branch2b"
  type: "BatchNorm"
  bottom: "res4b10_branch2b"
  top: "res4b10_branch2b"
  param {
    lr_mult: 0.0
  }
  param {
    lr_mult: 0.0
  }
  param {
    lr_mult: 0.0
  }
  batch_norm_param {
    use_global_stats: true
  }
}
layer {
  name: "scale4b10_branch2b"
  type: "Scale"
  bottom: "res4b10_branch2b"
  top: "res4b10_branch2b"
  param {
    lr_mult: 0.0
  }
  param {
    lr_mult: 0.0
  }
  scale_param {
    bias_term: true
  }
}
layer {
  name: "res4b10_branch2b_relu"
  type: "ReLU"
  bottom: "res4b10_branch2b"
  top: "res4b10_branch2b"
}
layer {
  name: "res4b10_branch2c"
  type: "Convolution"
  bottom: "res4b10_branch2b"
  top: "res4b10_branch2c"
  param {
    lr_mult: 1.0
  }
  convolution_param {
    num_output: 1024
    bias_term: false
    pad: 0
    kernel_size: 1
    stride: 1
  }
}
layer {
  name: "bn4b10_branch2c"
  type: "BatchNorm"
  bottom: "res4b10_branch2c"
  top: "res4b10_branch2c"
  param {
    lr_mult: 0.0
  }
  param {
    lr_mult: 0.0
  }
  param {
    lr_mult: 0.0
  }
  batch_norm_param {
    use_global_stats: true
  }
}
layer {
  name: "scale4b10_branch2c"
  type: "Scale"
  bottom: "res4b10_branch2c"
  top: "res4b10_branch2c"
  param {
    lr_mult: 0.0
  }
  param {
    lr_mult: 0.0
  }
  scale_param {
    bias_term: true
  }
}
layer {
  name: "res4b10"
  type: "Eltwise"
  bottom: "res4b9"
  bottom: "res4b10_branch2c"
  top: "res4b10"
  eltwise_param {
    operation: SUM
  }
}
layer {
  name: "res4b10_relu"
  type: "ReLU"
  bottom: "res4b10"
  top: "res4b10"
}
layer {
  name: "res4b11_branch2a"
  type: "Convolution"
  bottom: "res4b10"
  top: "res4b11_branch2a"
  param {
    lr_mult: 1.0
  }
  convolution_param {
    num_output: 256
    bias_term: false
    pad: 0
    kernel_size: 1
    stride: 1
  }
}
layer {
  name: "bn4b11_branch2a"
  type: "BatchNorm"
  bottom: "res4b11_branch2a"
  top: "res4b11_branch2a"
  param {
    lr_mult: 0.0
  }
  param {
    lr_mult: 0.0
  }
  param {
    lr_mult: 0.0
  }
  batch_norm_param {
    use_global_stats: true
  }
}
layer {
  name: "scale4b11_branch2a"
  type: "Scale"
  bottom: "res4b11_branch2a"
  top: "res4b11_branch2a"
  param {
    lr_mult: 0.0
  }
  param {
    lr_mult: 0.0
  }
  scale_param {
    bias_term: true
  }
}
layer {
  name: "res4b11_branch2a_relu"
  type: "ReLU"
  bottom: "res4b11_branch2a"
  top: "res4b11_branch2a"
}
layer {
  name: "res4b11_branch2b"
  type: "Convolution"
  bottom: "res4b11_branch2a"
  top: "res4b11_branch2b"
  param {
    lr_mult: 1.0
  }
  convolution_param {
    num_output: 256
    bias_term: false
    pad: 2
    kernel_size: 3
    stride: 1
    dilation: 2
  }
}
layer {
  name: "bn4b11_branch2b"
  type: "BatchNorm"
  bottom: "res4b11_branch2b"
  top: "res4b11_branch2b"
  param {
    lr_mult: 0.0
  }
  param {
    lr_mult: 0.0
  }
  param {
    lr_mult: 0.0
  }
  batch_norm_param {
    use_global_stats: true
  }
}
layer {
  name: "scale4b11_branch2b"
  type: "Scale"
  bottom: "res4b11_branch2b"
  top: "res4b11_branch2b"
  param {
    lr_mult: 0.0
  }
  param {
    lr_mult: 0.0
  }
  scale_param {
    bias_term: true
  }
}
layer {
  name: "res4b11_branch2b_relu"
  type: "ReLU"
  bottom: "res4b11_branch2b"
  top: "res4b11_branch2b"
}
layer {
  name: "res4b11_branch2c"
  type: "Convolution"
  bottom: "res4b11_branch2b"
  top: "res4b11_branch2c"
  param {
    lr_mult: 1.0
  }
  convolution_param {
    num_output: 1024
    bias_term: false
    pad: 0
    kernel_size: 1
    stride: 1
  }
}
layer {
  name: "bn4b11_branch2c"
  type: "BatchNorm"
  bottom: "res4b11_branch2c"
  top: "res4b11_branch2c"
  param {
    lr_mult: 0.0
  }
  param {
    lr_mult: 0.0
  }
  param {
    lr_mult: 0.0
  }
  batch_norm_param {
    use_global_stats: true
  }
}
layer {
  name: "scale4b11_branch2c"
  type: "Scale"
  bottom: "res4b11_branch2c"
  top: "res4b11_branch2c"
  param {
    lr_mult: 0.0
  }
  param {
    lr_mult: 0.0
  }
  scale_param {
    bias_term: true
  }
}
layer {
  name: "res4b11"
  type: "Eltwise"
  bottom: "res4b10"
  bottom: "res4b11_branch2c"
  top: "res4b11"
  eltwise_param {
    operation: SUM
  }
}
layer {
  name: "res4b11_relu"
  type: "ReLU"
  bottom: "res4b11"
  top: "res4b11"
}
layer {
  name: "res4b12_branch2a"
  type: "Convolution"
  bottom: "res4b11"
  top: "res4b12_branch2a"
  param {
    lr_mult: 1.0
  }
  convolution_param {
    num_output: 256
    bias_term: false
    pad: 0
    kernel_size: 1
    stride: 1
  }
}
layer {
  name: "bn4b12_branch2a"
  type: "BatchNorm"
  bottom: "res4b12_branch2a"
  top: "res4b12_branch2a"
  param {
    lr_mult: 0.0
  }
  param {
    lr_mult: 0.0
  }
  param {
    lr_mult: 0.0
  }
  batch_norm_param {
    use_global_stats: true
  }
}
layer {
  name: "scale4b12_branch2a"
  type: "Scale"
  bottom: "res4b12_branch2a"
  top: "res4b12_branch2a"
  param {
    lr_mult: 0.0
  }
  param {
    lr_mult: 0.0
  }
  scale_param {
    bias_term: true
  }
}
layer {
  name: "res4b12_branch2a_relu"
  type: "ReLU"
  bottom: "res4b12_branch2a"
  top: "res4b12_branch2a"
}
layer {
  name: "res4b12_branch2b"
  type: "Convolution"
  bottom: "res4b12_branch2a"
  top: "res4b12_branch2b"
  param {
    lr_mult: 1.0
  }
  convolution_param {
    num_output: 256
    bias_term: false
    pad: 2
    kernel_size: 3
    stride: 1
    dilation: 2
  }
}
layer {
  name: "bn4b12_branch2b"
  type: "BatchNorm"
  bottom: "res4b12_branch2b"
  top: "res4b12_branch2b"
  param {
    lr_mult: 0.0
  }
  param {
    lr_mult: 0.0
  }
  param {
    lr_mult: 0.0
  }
  batch_norm_param {
    use_global_stats: true
  }
}
layer {
  name: "scale4b12_branch2b"
  type: "Scale"
  bottom: "res4b12_branch2b"
  top: "res4b12_branch2b"
  param {
    lr_mult: 0.0
  }
  param {
    lr_mult: 0.0
  }
  scale_param {
    bias_term: true
  }
}
layer {
  name: "res4b12_branch2b_relu"
  type: "ReLU"
  bottom: "res4b12_branch2b"
  top: "res4b12_branch2b"
}
layer {
  name: "res4b12_branch2c"
  type: "Convolution"
  bottom: "res4b12_branch2b"
  top: "res4b12_branch2c"
  param {
    lr_mult: 1.0
  }
  convolution_param {
    num_output: 1024
    bias_term: false
    pad: 0
    kernel_size: 1
    stride: 1
  }
}
layer {
  name: "bn4b12_branch2c"
  type: "BatchNorm"
  bottom: "res4b12_branch2c"
  top: "res4b12_branch2c"
  param {
    lr_mult: 0.0
  }
  param {
    lr_mult: 0.0
  }
  param {
    lr_mult: 0.0
  }
  batch_norm_param {
    use_global_stats: true
  }
}
layer {
  name: "scale4b12_branch2c"
  type: "Scale"
  bottom: "res4b12_branch2c"
  top: "res4b12_branch2c"
  param {
    lr_mult: 0.0
  }
  param {
    lr_mult: 0.0
  }
  scale_param {
    bias_term: true
  }
}
layer {
  name: "res4b12"
  type: "Eltwise"
  bottom: "res4b11"
  bottom: "res4b12_branch2c"
  top: "res4b12"
  eltwise_param {
    operation: SUM
  }
}
layer {
  name: "res4b12_relu"
  type: "ReLU"
  bottom: "res4b12"
  top: "res4b12"
}
layer {
  name: "res4b13_branch2a"
  type: "Convolution"
  bottom: "res4b12"
  top: "res4b13_branch2a"
  param {
    lr_mult: 1.0
  }
  convolution_param {
    num_output: 256
    bias_term: false
    pad: 0
    kernel_size: 1
    stride: 1
  }
}
layer {
  name: "bn4b13_branch2a"
  type: "BatchNorm"
  bottom: "res4b13_branch2a"
  top: "res4b13_branch2a"
  param {
    lr_mult: 0.0
  }
  param {
    lr_mult: 0.0
  }
  param {
    lr_mult: 0.0
  }
  batch_norm_param {
    use_global_stats: true
  }
}
layer {
  name: "scale4b13_branch2a"
  type: "Scale"
  bottom: "res4b13_branch2a"
  top: "res4b13_branch2a"
  param {
    lr_mult: 0.0
  }
  param {
    lr_mult: 0.0
  }
  scale_param {
    bias_term: true
  }
}
layer {
  name: "res4b13_branch2a_relu"
  type: "ReLU"
  bottom: "res4b13_branch2a"
  top: "res4b13_branch2a"
}
layer {
  name: "res4b13_branch2b"
  type: "Convolution"
  bottom: "res4b13_branch2a"
  top: "res4b13_branch2b"
  param {
    lr_mult: 1.0
  }
  convolution_param {
    num_output: 256
    bias_term: false
    pad: 2
    kernel_size: 3
    stride: 1
    dilation: 2
  }
}
layer {
  name: "bn4b13_branch2b"
  type: "BatchNorm"
  bottom: "res4b13_branch2b"
  top: "res4b13_branch2b"
  param {
    lr_mult: 0.0
  }
  param {
    lr_mult: 0.0
  }
  param {
    lr_mult: 0.0
  }
  batch_norm_param {
    use_global_stats: true
  }
}
layer {
  name: "scale4b13_branch2b"
  type: "Scale"
  bottom: "res4b13_branch2b"
  top: "res4b13_branch2b"
  param {
    lr_mult: 0.0
  }
  param {
    lr_mult: 0.0
  }
  scale_param {
    bias_term: true
  }
}
layer {
  name: "res4b13_branch2b_relu"
  type: "ReLU"
  bottom: "res4b13_branch2b"
  top: "res4b13_branch2b"
}
layer {
  name: "res4b13_branch2c"
  type: "Convolution"
  bottom: "res4b13_branch2b"
  top: "res4b13_branch2c"
  param {
    lr_mult: 1.0
  }
  convolution_param {
    num_output: 1024
    bias_term: false
    pad: 0
    kernel_size: 1
    stride: 1
  }
}
layer {
  name: "bn4b13_branch2c"
  type: "BatchNorm"
  bottom: "res4b13_branch2c"
  top: "res4b13_branch2c"
  param {
    lr_mult: 0.0
  }
  param {
    lr_mult: 0.0
  }
  param {
    lr_mult: 0.0
  }
  batch_norm_param {
    use_global_stats: true
  }
}
layer {
  name: "scale4b13_branch2c"
  type: "Scale"
  bottom: "res4b13_branch2c"
  top: "res4b13_branch2c"
  param {
    lr_mult: 0.0
  }
  param {
    lr_mult: 0.0
  }
  scale_param {
    bias_term: true
  }
}
layer {
  name: "res4b13"
  type: "Eltwise"
  bottom: "res4b12"
  bottom: "res4b13_branch2c"
  top: "res4b13"
  eltwise_param {
    operation: SUM
  }
}
layer {
  name: "res4b13_relu"
  type: "ReLU"
  bottom: "res4b13"
  top: "res4b13"
}
layer {
  name: "res4b14_branch2a"
  type: "Convolution"
  bottom: "res4b13"
  top: "res4b14_branch2a"
  param {
    lr_mult: 1.0
  }
  convolution_param {
    num_output: 256
    bias_term: false
    pad: 0
    kernel_size: 1
    stride: 1
  }
}
layer {
  name: "bn4b14_branch2a"
  type: "BatchNorm"
  bottom: "res4b14_branch2a"
  top: "res4b14_branch2a"
  param {
    lr_mult: 0.0
  }
  param {
    lr_mult: 0.0
  }
  param {
    lr_mult: 0.0
  }
  batch_norm_param {
    use_global_stats: true
  }
}
layer {
  name: "scale4b14_branch2a"
  type: "Scale"
  bottom: "res4b14_branch2a"
  top: "res4b14_branch2a"
  param {
    lr_mult: 0.0
  }
  param {
    lr_mult: 0.0
  }
  scale_param {
    bias_term: true
  }
}
layer {
  name: "res4b14_branch2a_relu"
  type: "ReLU"
  bottom: "res4b14_branch2a"
  top: "res4b14_branch2a"
}
layer {
  name: "res4b14_branch2b"
  type: "Convolution"
  bottom: "res4b14_branch2a"
  top: "res4b14_branch2b"
  param {
    lr_mult: 1.0
  }
  convolution_param {
    num_output: 256
    bias_term: false
    pad: 2
    kernel_size: 3
    stride: 1
    dilation: 2
  }
}
layer {
  name: "bn4b14_branch2b"
  type: "BatchNorm"
  bottom: "res4b14_branch2b"
  top: "res4b14_branch2b"
  param {
    lr_mult: 0.0
  }
  param {
    lr_mult: 0.0
  }
  param {
    lr_mult: 0.0
  }
  batch_norm_param {
    use_global_stats: true
  }
}
layer {
  name: "scale4b14_branch2b"
  type: "Scale"
  bottom: "res4b14_branch2b"
  top: "res4b14_branch2b"
  param {
    lr_mult: 0.0
  }
  param {
    lr_mult: 0.0
  }
  scale_param {
    bias_term: true
  }
}
layer {
  name: "res4b14_branch2b_relu"
  type: "ReLU"
  bottom: "res4b14_branch2b"
  top: "res4b14_branch2b"
}
layer {
  name: "res4b14_branch2c"
  type: "Convolution"
  bottom: "res4b14_branch2b"
  top: "res4b14_branch2c"
  param {
    lr_mult: 1.0
  }
  convolution_param {
    num_output: 1024
    bias_term: false
    pad: 0
    kernel_size: 1
    stride: 1
  }
}
layer {
  name: "bn4b14_branch2c"
  type: "BatchNorm"
  bottom: "res4b14_branch2c"
  top: "res4b14_branch2c"
  param {
    lr_mult: 0.0
  }
  param {
    lr_mult: 0.0
  }
  param {
    lr_mult: 0.0
  }
  batch_norm_param {
    use_global_stats: true
  }
}
layer {
  name: "scale4b14_branch2c"
  type: "Scale"
  bottom: "res4b14_branch2c"
  top: "res4b14_branch2c"
  param {
    lr_mult: 0.0
  }
  param {
    lr_mult: 0.0
  }
  scale_param {
    bias_term: true
  }
}
layer {
  name: "res4b14"
  type: "Eltwise"
  bottom: "res4b13"
  bottom: "res4b14_branch2c"
  top: "res4b14"
  eltwise_param {
    operation: SUM
  }
}
layer {
  name: "res4b14_relu"
  type: "ReLU"
  bottom: "res4b14"
  top: "res4b14"
}
layer {
  name: "res4b15_branch2a"
  type: "Convolution"
  bottom: "res4b14"
  top: "res4b15_branch2a"
  param {
    lr_mult: 1.0
  }
  convolution_param {
    num_output: 256
    bias_term: false
    pad: 0
    kernel_size: 1
    stride: 1
  }
}
layer {
  name: "bn4b15_branch2a"
  type: "BatchNorm"
  bottom: "res4b15_branch2a"
  top: "res4b15_branch2a"
  param {
    lr_mult: 0.0
  }
  param {
    lr_mult: 0.0
  }
  param {
    lr_mult: 0.0
  }
  batch_norm_param {
    use_global_stats: true
  }
}
layer {
  name: "scale4b15_branch2a"
  type: "Scale"
  bottom: "res4b15_branch2a"
  top: "res4b15_branch2a"
  param {
    lr_mult: 0.0
  }
  param {
    lr_mult: 0.0
  }
  scale_param {
    bias_term: true
  }
}
layer {
  name: "res4b15_branch2a_relu"
  type: "ReLU"
  bottom: "res4b15_branch2a"
  top: "res4b15_branch2a"
}
layer {
  name: "res4b15_branch2b"
  type: "Convolution"
  bottom: "res4b15_branch2a"
  top: "res4b15_branch2b"
  param {
    lr_mult: 1.0
  }
  convolution_param {
    num_output: 256
    bias_term: false
    pad: 2
    kernel_size: 3
    stride: 1
    dilation: 2
  }
}
layer {
  name: "bn4b15_branch2b"
  type: "BatchNorm"
  bottom: "res4b15_branch2b"
  top: "res4b15_branch2b"
  param {
    lr_mult: 0.0
  }
  param {
    lr_mult: 0.0
  }
  param {
    lr_mult: 0.0
  }
  batch_norm_param {
    use_global_stats: true
  }
}
layer {
  name: "scale4b15_branch2b"
  type: "Scale"
  bottom: "res4b15_branch2b"
  top: "res4b15_branch2b"
  param {
    lr_mult: 0.0
  }
  param {
    lr_mult: 0.0
  }
  scale_param {
    bias_term: true
  }
}
layer {
  name: "res4b15_branch2b_relu"
  type: "ReLU"
  bottom: "res4b15_branch2b"
  top: "res4b15_branch2b"
}
layer {
  name: "res4b15_branch2c"
  type: "Convolution"
  bottom: "res4b15_branch2b"
  top: "res4b15_branch2c"
  param {
    lr_mult: 1.0
  }
  convolution_param {
    num_output: 1024
    bias_term: false
    pad: 0
    kernel_size: 1
    stride: 1
  }
}
layer {
  name: "bn4b15_branch2c"
  type: "BatchNorm"
  bottom: "res4b15_branch2c"
  top: "res4b15_branch2c"
  param {
    lr_mult: 0.0
  }
  param {
    lr_mult: 0.0
  }
  param {
    lr_mult: 0.0
  }
  batch_norm_param {
    use_global_stats: true
  }
}
layer {
  name: "scale4b15_branch2c"
  type: "Scale"
  bottom: "res4b15_branch2c"
  top: "res4b15_branch2c"
  param {
    lr_mult: 0.0
  }
  param {
    lr_mult: 0.0
  }
  scale_param {
    bias_term: true
  }
}
layer {
  name: "res4b15"
  type: "Eltwise"
  bottom: "res4b14"
  bottom: "res4b15_branch2c"
  top: "res4b15"
  eltwise_param {
    operation: SUM
  }
}
layer {
  name: "res4b15_relu"
  type: "ReLU"
  bottom: "res4b15"
  top: "res4b15"
}
layer {
  name: "res4b16_branch2a"
  type: "Convolution"
  bottom: "res4b15"
  top: "res4b16_branch2a"
  param {
    lr_mult: 1.0
  }
  convolution_param {
    num_output: 256
    bias_term: false
    pad: 0
    kernel_size: 1
    stride: 1
  }
}
layer {
  name: "bn4b16_branch2a"
  type: "BatchNorm"
  bottom: "res4b16_branch2a"
  top: "res4b16_branch2a"
  param {
    lr_mult: 0.0
  }
  param {
    lr_mult: 0.0
  }
  param {
    lr_mult: 0.0
  }
  batch_norm_param {
    use_global_stats: true
  }
}
layer {
  name: "scale4b16_branch2a"
  type: "Scale"
  bottom: "res4b16_branch2a"
  top: "res4b16_branch2a"
  param {
    lr_mult: 0.0
  }
  param {
    lr_mult: 0.0
  }
  scale_param {
    bias_term: true
  }
}
layer {
  name: "res4b16_branch2a_relu"
  type: "ReLU"
  bottom: "res4b16_branch2a"
  top: "res4b16_branch2a"
}
layer {
  name: "res4b16_branch2b"
  type: "Convolution"
  bottom: "res4b16_branch2a"
  top: "res4b16_branch2b"
  param {
    lr_mult: 1.0
  }
  convolution_param {
    num_output: 256
    bias_term: false
    pad: 2
    kernel_size: 3
    stride: 1
    dilation: 2
  }
}
layer {
  name: "bn4b16_branch2b"
  type: "BatchNorm"
  bottom: "res4b16_branch2b"
  top: "res4b16_branch2b"
  param {
    lr_mult: 0.0
  }
  param {
    lr_mult: 0.0
  }
  param {
    lr_mult: 0.0
  }
  batch_norm_param {
    use_global_stats: true
  }
}
layer {
  name: "scale4b16_branch2b"
  type: "Scale"
  bottom: "res4b16_branch2b"
  top: "res4b16_branch2b"
  param {
    lr_mult: 0.0
  }
  param {
    lr_mult: 0.0
  }
  scale_param {
    bias_term: true
  }
}
layer {
  name: "res4b16_branch2b_relu"
  type: "ReLU"
  bottom: "res4b16_branch2b"
  top: "res4b16_branch2b"
}
layer {
  name: "res4b16_branch2c"
  type: "Convolution"
  bottom: "res4b16_branch2b"
  top: "res4b16_branch2c"
  param {
    lr_mult: 1.0
  }
  convolution_param {
    num_output: 1024
    bias_term: false
    pad: 0
    kernel_size: 1
    stride: 1
  }
}
layer {
  name: "bn4b16_branch2c"
  type: "BatchNorm"
  bottom: "res4b16_branch2c"
  top: "res4b16_branch2c"
  param {
    lr_mult: 0.0
  }
  param {
    lr_mult: 0.0
  }
  param {
    lr_mult: 0.0
  }
  batch_norm_param {
    use_global_stats: true
  }
}
layer {
  name: "scale4b16_branch2c"
  type: "Scale"
  bottom: "res4b16_branch2c"
  top: "res4b16_branch2c"
  param {
    lr_mult: 0.0
  }
  param {
    lr_mult: 0.0
  }
  scale_param {
    bias_term: true
  }
}
layer {
  name: "res4b16"
  type: "Eltwise"
  bottom: "res4b15"
  bottom: "res4b16_branch2c"
  top: "res4b16"
  eltwise_param {
    operation: SUM
  }
}
layer {
  name: "res4b16_relu"
  type: "ReLU"
  bottom: "res4b16"
  top: "res4b16"
}
layer {
  name: "res4b17_branch2a"
  type: "Convolution"
  bottom: "res4b16"
  top: "res4b17_branch2a"
  param {
    lr_mult: 1.0
  }
  convolution_param {
    num_output: 256
    bias_term: false
    pad: 0
    kernel_size: 1
    stride: 1
  }
}
layer {
  name: "bn4b17_branch2a"
  type: "BatchNorm"
  bottom: "res4b17_branch2a"
  top: "res4b17_branch2a"
  param {
    lr_mult: 0.0
  }
  param {
    lr_mult: 0.0
  }
  param {
    lr_mult: 0.0
  }
  batch_norm_param {
    use_global_stats: true
  }
}
layer {
  name: "scale4b17_branch2a"
  type: "Scale"
  bottom: "res4b17_branch2a"
  top: "res4b17_branch2a"
  param {
    lr_mult: 0.0
  }
  param {
    lr_mult: 0.0
  }
  scale_param {
    bias_term: true
  }
}
layer {
  name: "res4b17_branch2a_relu"
  type: "ReLU"
  bottom: "res4b17_branch2a"
  top: "res4b17_branch2a"
}
layer {
  name: "res4b17_branch2b"
  type: "Convolution"
  bottom: "res4b17_branch2a"
  top: "res4b17_branch2b"
  param {
    lr_mult: 1.0
  }
  convolution_param {
    num_output: 256
    bias_term: false
    pad: 2
    kernel_size: 3
    stride: 1
    dilation: 2
  }
}
layer {
  name: "bn4b17_branch2b"
  type: "BatchNorm"
  bottom: "res4b17_branch2b"
  top: "res4b17_branch2b"
  param {
    lr_mult: 0.0
  }
  param {
    lr_mult: 0.0
  }
  param {
    lr_mult: 0.0
  }
  batch_norm_param {
    use_global_stats: true
  }
}
layer {
  name: "scale4b17_branch2b"
  type: "Scale"
  bottom: "res4b17_branch2b"
  top: "res4b17_branch2b"
  param {
    lr_mult: 0.0
  }
  param {
    lr_mult: 0.0
  }
  scale_param {
    bias_term: true
  }
}
layer {
  name: "res4b17_branch2b_relu"
  type: "ReLU"
  bottom: "res4b17_branch2b"
  top: "res4b17_branch2b"
}
layer {
  name: "res4b17_branch2c"
  type: "Convolution"
  bottom: "res4b17_branch2b"
  top: "res4b17_branch2c"
  param {
    lr_mult: 1.0
  }
  convolution_param {
    num_output: 1024
    bias_term: false
    pad: 0
    kernel_size: 1
    stride: 1
  }
}
layer {
  name: "bn4b17_branch2c"
  type: "BatchNorm"
  bottom: "res4b17_branch2c"
  top: "res4b17_branch2c"
  param {
    lr_mult: 0.0
  }
  param {
    lr_mult: 0.0
  }
  param {
    lr_mult: 0.0
  }
  batch_norm_param {
    use_global_stats: true
  }
}
layer {
  name: "scale4b17_branch2c"
  type: "Scale"
  bottom: "res4b17_branch2c"
  top: "res4b17_branch2c"
  param {
    lr_mult: 0.0
  }
  param {
    lr_mult: 0.0
  }
  scale_param {
    bias_term: true
  }
}
layer {
  name: "res4b17"
  type: "Eltwise"
  bottom: "res4b16"
  bottom: "res4b17_branch2c"
  top: "res4b17"
  eltwise_param {
    operation: SUM
  }
}
layer {
  name: "res4b17_relu"
  type: "ReLU"
  bottom: "res4b17"
  top: "res4b17"
}
layer {
  name: "res4b18_branch2a"
  type: "Convolution"
  bottom: "res4b17"
  top: "res4b18_branch2a"
  param {
    lr_mult: 1.0
  }
  convolution_param {
    num_output: 256
    bias_term: false
    pad: 0
    kernel_size: 1
    stride: 1
  }
}
layer {
  name: "bn4b18_branch2a"
  type: "BatchNorm"
  bottom: "res4b18_branch2a"
  top: "res4b18_branch2a"
  param {
    lr_mult: 0.0
  }
  param {
    lr_mult: 0.0
  }
  param {
    lr_mult: 0.0
  }
  batch_norm_param {
    use_global_stats: true
  }
}
layer {
  name: "scale4b18_branch2a"
  type: "Scale"
  bottom: "res4b18_branch2a"
  top: "res4b18_branch2a"
  param {
    lr_mult: 0.0
  }
  param {
    lr_mult: 0.0
  }
  scale_param {
    bias_term: true
  }
}
layer {
  name: "res4b18_branch2a_relu"
  type: "ReLU"
  bottom: "res4b18_branch2a"
  top: "res4b18_branch2a"
}
layer {
  name: "res4b18_branch2b"
  type: "Convolution"
  bottom: "res4b18_branch2a"
  top: "res4b18_branch2b"
  param {
    lr_mult: 1.0
  }
  convolution_param {
    num_output: 256
    bias_term: false
    pad: 2
    kernel_size: 3
    stride: 1
    dilation: 2
  }
}
layer {
  name: "bn4b18_branch2b"
  type: "BatchNorm"
  bottom: "res4b18_branch2b"
  top: "res4b18_branch2b"
  param {
    lr_mult: 0.0
  }
  param {
    lr_mult: 0.0
  }
  param {
    lr_mult: 0.0
  }
  batch_norm_param {
    use_global_stats: true
  }
}
layer {
  name: "scale4b18_branch2b"
  type: "Scale"
  bottom: "res4b18_branch2b"
  top: "res4b18_branch2b"
  param {
    lr_mult: 0.0
  }
  param {
    lr_mult: 0.0
  }
  scale_param {
    bias_term: true
  }
}
layer {
  name: "res4b18_branch2b_relu"
  type: "ReLU"
  bottom: "res4b18_branch2b"
  top: "res4b18_branch2b"
}
layer {
  name: "res4b18_branch2c"
  type: "Convolution"
  bottom: "res4b18_branch2b"
  top: "res4b18_branch2c"
  param {
    lr_mult: 1.0
  }
  convolution_param {
    num_output: 1024
    bias_term: false
    pad: 0
    kernel_size: 1
    stride: 1
  }
}
layer {
  name: "bn4b18_branch2c"
  type: "BatchNorm"
  bottom: "res4b18_branch2c"
  top: "res4b18_branch2c"
  param {
    lr_mult: 0.0
  }
  param {
    lr_mult: 0.0
  }
  param {
    lr_mult: 0.0
  }
  batch_norm_param {
    use_global_stats: true
  }
}
layer {
  name: "scale4b18_branch2c"
  type: "Scale"
  bottom: "res4b18_branch2c"
  top: "res4b18_branch2c"
  param {
    lr_mult: 0.0
  }
  param {
    lr_mult: 0.0
  }
  scale_param {
    bias_term: true
  }
}
layer {
  name: "res4b18"
  type: "Eltwise"
  bottom: "res4b17"
  bottom: "res4b18_branch2c"
  top: "res4b18"
  eltwise_param {
    operation: SUM
  }
}
layer {
  name: "res4b18_relu"
  type: "ReLU"
  bottom: "res4b18"
  top: "res4b18"
}
layer {
  name: "res4b19_branch2a"
  type: "Convolution"
  bottom: "res4b18"
  top: "res4b19_branch2a"
  param {
    lr_mult: 1.0
  }
  convolution_param {
    num_output: 256
    bias_term: false
    pad: 0
    kernel_size: 1
    stride: 1
  }
}
layer {
  name: "bn4b19_branch2a"
  type: "BatchNorm"
  bottom: "res4b19_branch2a"
  top: "res4b19_branch2a"
  param {
    lr_mult: 0.0
  }
  param {
    lr_mult: 0.0
  }
  param {
    lr_mult: 0.0
  }
  batch_norm_param {
    use_global_stats: true
  }
}
layer {
  name: "scale4b19_branch2a"
  type: "Scale"
  bottom: "res4b19_branch2a"
  top: "res4b19_branch2a"
  param {
    lr_mult: 0.0
  }
  param {
    lr_mult: 0.0
  }
  scale_param {
    bias_term: true
  }
}
layer {
  name: "res4b19_branch2a_relu"
  type: "ReLU"
  bottom: "res4b19_branch2a"
  top: "res4b19_branch2a"
}
layer {
  name: "res4b19_branch2b"
  type: "Convolution"
  bottom: "res4b19_branch2a"
  top: "res4b19_branch2b"
  param {
    lr_mult: 1.0
  }
  convolution_param {
    num_output: 256
    bias_term: false
    pad: 2
    kernel_size: 3
    stride: 1
    dilation: 2
  }
}
layer {
  name: "bn4b19_branch2b"
  type: "BatchNorm"
  bottom: "res4b19_branch2b"
  top: "res4b19_branch2b"
  param {
    lr_mult: 0.0
  }
  param {
    lr_mult: 0.0
  }
  param {
    lr_mult: 0.0
  }
  batch_norm_param {
    use_global_stats: true
  }
}
layer {
  name: "scale4b19_branch2b"
  type: "Scale"
  bottom: "res4b19_branch2b"
  top: "res4b19_branch2b"
  param {
    lr_mult: 0.0
  }
  param {
    lr_mult: 0.0
  }
  scale_param {
    bias_term: true
  }
}
layer {
  name: "res4b19_branch2b_relu"
  type: "ReLU"
  bottom: "res4b19_branch2b"
  top: "res4b19_branch2b"
}
layer {
  name: "res4b19_branch2c"
  type: "Convolution"
  bottom: "res4b19_branch2b"
  top: "res4b19_branch2c"
  param {
    lr_mult: 1.0
  }
  convolution_param {
    num_output: 1024
    bias_term: false
    pad: 0
    kernel_size: 1
    stride: 1
  }
}
layer {
  name: "bn4b19_branch2c"
  type: "BatchNorm"
  bottom: "res4b19_branch2c"
  top: "res4b19_branch2c"
  param {
    lr_mult: 0.0
  }
  param {
    lr_mult: 0.0
  }
  param {
    lr_mult: 0.0
  }
  batch_norm_param {
    use_global_stats: true
  }
}
layer {
  name: "scale4b19_branch2c"
  type: "Scale"
  bottom: "res4b19_branch2c"
  top: "res4b19_branch2c"
  param {
    lr_mult: 0.0
  }
  param {
    lr_mult: 0.0
  }
  scale_param {
    bias_term: true
  }
}
layer {
  name: "res4b19"
  type: "Eltwise"
  bottom: "res4b18"
  bottom: "res4b19_branch2c"
  top: "res4b19"
  eltwise_param {
    operation: SUM
  }
}
layer {
  name: "res4b19_relu"
  type: "ReLU"
  bottom: "res4b19"
  top: "res4b19"
}
layer {
  name: "res4b20_branch2a"
  type: "Convolution"
  bottom: "res4b19"
  top: "res4b20_branch2a"
  param {
    lr_mult: 1.0
  }
  convolution_param {
    num_output: 256
    bias_term: false
    pad: 0
    kernel_size: 1
    stride: 1
  }
}
layer {
  name: "bn4b20_branch2a"
  type: "BatchNorm"
  bottom: "res4b20_branch2a"
  top: "res4b20_branch2a"
  param {
    lr_mult: 0.0
  }
  param {
    lr_mult: 0.0
  }
  param {
    lr_mult: 0.0
  }
  batch_norm_param {
    use_global_stats: true
  }
}
layer {
  name: "scale4b20_branch2a"
  type: "Scale"
  bottom: "res4b20_branch2a"
  top: "res4b20_branch2a"
  param {
    lr_mult: 0.0
  }
  param {
    lr_mult: 0.0
  }
  scale_param {
    bias_term: true
  }
}
layer {
  name: "res4b20_branch2a_relu"
  type: "ReLU"
  bottom: "res4b20_branch2a"
  top: "res4b20_branch2a"
}
layer {
  name: "res4b20_branch2b"
  type: "Convolution"
  bottom: "res4b20_branch2a"
  top: "res4b20_branch2b"
  param {
    lr_mult: 1.0
  }
  convolution_param {
    num_output: 256
    bias_term: false
    pad: 2
    kernel_size: 3
    stride: 1
    dilation: 2
  }
}
layer {
  name: "bn4b20_branch2b"
  type: "BatchNorm"
  bottom: "res4b20_branch2b"
  top: "res4b20_branch2b"
  param {
    lr_mult: 0.0
  }
  param {
    lr_mult: 0.0
  }
  param {
    lr_mult: 0.0
  }
  batch_norm_param {
    use_global_stats: true
  }
}
layer {
  name: "scale4b20_branch2b"
  type: "Scale"
  bottom: "res4b20_branch2b"
  top: "res4b20_branch2b"
  param {
    lr_mult: 0.0
  }
  param {
    lr_mult: 0.0
  }
  scale_param {
    bias_term: true
  }
}
layer {
  name: "res4b20_branch2b_relu"
  type: "ReLU"
  bottom: "res4b20_branch2b"
  top: "res4b20_branch2b"
}
layer {
  name: "res4b20_branch2c"
  type: "Convolution"
  bottom: "res4b20_branch2b"
  top: "res4b20_branch2c"
  param {
    lr_mult: 1.0
  }
  convolution_param {
    num_output: 1024
    bias_term: false
    pad: 0
    kernel_size: 1
    stride: 1
  }
}
layer {
  name: "bn4b20_branch2c"
  type: "BatchNorm"
  bottom: "res4b20_branch2c"
  top: "res4b20_branch2c"
  param {
    lr_mult: 0.0
  }
  param {
    lr_mult: 0.0
  }
  param {
    lr_mult: 0.0
  }
  batch_norm_param {
    use_global_stats: true
  }
}
layer {
  name: "scale4b20_branch2c"
  type: "Scale"
  bottom: "res4b20_branch2c"
  top: "res4b20_branch2c"
  param {
    lr_mult: 0.0
  }
  param {
    lr_mult: 0.0
  }
  scale_param {
    bias_term: true
  }
}
layer {
  name: "res4b20"
  type: "Eltwise"
  bottom: "res4b19"
  bottom: "res4b20_branch2c"
  top: "res4b20"
  eltwise_param {
    operation: SUM
  }
}
layer {
  name: "res4b20_relu"
  type: "ReLU"
  bottom: "res4b20"
  top: "res4b20"
}
layer {
  name: "res4b21_branch2a"
  type: "Convolution"
  bottom: "res4b20"
  top: "res4b21_branch2a"
  param {
    lr_mult: 1.0
  }
  convolution_param {
    num_output: 256
    bias_term: false
    pad: 0
    kernel_size: 1
    stride: 1
  }
}
layer {
  name: "bn4b21_branch2a"
  type: "BatchNorm"
  bottom: "res4b21_branch2a"
  top: "res4b21_branch2a"
  param {
    lr_mult: 0.0
  }
  param {
    lr_mult: 0.0
  }
  param {
    lr_mult: 0.0
  }
  batch_norm_param {
    use_global_stats: true
  }
}
layer {
  name: "scale4b21_branch2a"
  type: "Scale"
  bottom: "res4b21_branch2a"
  top: "res4b21_branch2a"
  param {
    lr_mult: 0.0
  }
  param {
    lr_mult: 0.0
  }
  scale_param {
    bias_term: true
  }
}
layer {
  name: "res4b21_branch2a_relu"
  type: "ReLU"
  bottom: "res4b21_branch2a"
  top: "res4b21_branch2a"
}
layer {
  name: "res4b21_branch2b"
  type: "Convolution"
  bottom: "res4b21_branch2a"
  top: "res4b21_branch2b"
  param {
    lr_mult: 1.0
  }
  convolution_param {
    num_output: 256
    bias_term: false
    pad: 2
    kernel_size: 3
    stride: 1
    dilation: 2
  }
}
layer {
  name: "bn4b21_branch2b"
  type: "BatchNorm"
  bottom: "res4b21_branch2b"
  top: "res4b21_branch2b"
  param {
    lr_mult: 0.0
  }
  param {
    lr_mult: 0.0
  }
  param {
    lr_mult: 0.0
  }
  batch_norm_param {
    use_global_stats: true
  }
}
layer {
  name: "scale4b21_branch2b"
  type: "Scale"
  bottom: "res4b21_branch2b"
  top: "res4b21_branch2b"
  param {
    lr_mult: 0.0
  }
  param {
    lr_mult: 0.0
  }
  scale_param {
    bias_term: true
  }
}
layer {
  name: "res4b21_branch2b_relu"
  type: "ReLU"
  bottom: "res4b21_branch2b"
  top: "res4b21_branch2b"
}
layer {
  name: "res4b21_branch2c"
  type: "Convolution"
  bottom: "res4b21_branch2b"
  top: "res4b21_branch2c"
  param {
    lr_mult: 1.0
  }
  convolution_param {
    num_output: 1024
    bias_term: false
    pad: 0
    kernel_size: 1
    stride: 1
  }
}
layer {
  name: "bn4b21_branch2c"
  type: "BatchNorm"
  bottom: "res4b21_branch2c"
  top: "res4b21_branch2c"
  param {
    lr_mult: 0.0
  }
  param {
    lr_mult: 0.0
  }
  param {
    lr_mult: 0.0
  }
  batch_norm_param {
    use_global_stats: true
  }
}
layer {
  name: "scale4b21_branch2c"
  type: "Scale"
  bottom: "res4b21_branch2c"
  top: "res4b21_branch2c"
  param {
    lr_mult: 0.0
  }
  param {
    lr_mult: 0.0
  }
  scale_param {
    bias_term: true
  }
}
layer {
  name: "res4b21"
  type: "Eltwise"
  bottom: "res4b20"
  bottom: "res4b21_branch2c"
  top: "res4b21"
  eltwise_param {
    operation: SUM
  }
}
layer {
  name: "res4b21_relu"
  type: "ReLU"
  bottom: "res4b21"
  top: "res4b21"
}
layer {
  name: "res4b22_branch2a"
  type: "Convolution"
  bottom: "res4b21"
  top: "res4b22_branch2a"
  param {
    lr_mult: 1.0
  }
  convolution_param {
    num_output: 256
    bias_term: false
    pad: 0
    kernel_size: 1
    stride: 1
  }
}
layer {
  name: "bn4b22_branch2a"
  type: "BatchNorm"
  bottom: "res4b22_branch2a"
  top: "res4b22_branch2a"
  param {
    lr_mult: 0.0
  }
  param {
    lr_mult: 0.0
  }
  param {
    lr_mult: 0.0
  }
  batch_norm_param {
    use_global_stats: true
  }
}
layer {
  name: "scale4b22_branch2a"
  type: "Scale"
  bottom: "res4b22_branch2a"
  top: "res4b22_branch2a"
  param {
    lr_mult: 0.0
  }
  param {
    lr_mult: 0.0
  }
  scale_param {
    bias_term: true
  }
}
layer {
  name: "res4b22_branch2a_relu"
  type: "ReLU"
  bottom: "res4b22_branch2a"
  top: "res4b22_branch2a"
}
layer {
  name: "res4b22_branch2b"
  type: "Convolution"
  bottom: "res4b22_branch2a"
  top: "res4b22_branch2b"
  param {
    lr_mult: 1.0
  }
  convolution_param {
    num_output: 256
    bias_term: false
    pad: 2
    kernel_size: 3
    stride: 1
    dilation: 2
  }
}
layer {
  name: "bn4b22_branch2b"
  type: "BatchNorm"
  bottom: "res4b22_branch2b"
  top: "res4b22_branch2b"
  param {
    lr_mult: 0.0
  }
  param {
    lr_mult: 0.0
  }
  param {
    lr_mult: 0.0
  }
  batch_norm_param {
    use_global_stats: true
  }
}
layer {
  name: "scale4b22_branch2b"
  type: "Scale"
  bottom: "res4b22_branch2b"
  top: "res4b22_branch2b"
  param {
    lr_mult: 0.0
  }
  param {
    lr_mult: 0.0
  }
  scale_param {
    bias_term: true
  }
}
layer {
  name: "res4b22_branch2b_relu"
  type: "ReLU"
  bottom: "res4b22_branch2b"
  top: "res4b22_branch2b"
}
layer {
  name: "res4b22_branch2c"
  type: "Convolution"
  bottom: "res4b22_branch2b"
  top: "res4b22_branch2c"
  param {
    lr_mult: 1.0
  }
  convolution_param {
    num_output: 1024
    bias_term: false
    pad: 0
    kernel_size: 1
    stride: 1
  }
}
layer {
  name: "bn4b22_branch2c"
  type: "BatchNorm"
  bottom: "res4b22_branch2c"
  top: "res4b22_branch2c"
  param {
    lr_mult: 0.0
  }
  param {
    lr_mult: 0.0
  }
  param {
    lr_mult: 0.0
  }
  batch_norm_param {
    use_global_stats: true
  }
}
layer {
  name: "scale4b22_branch2c"
  type: "Scale"
  bottom: "res4b22_branch2c"
  top: "res4b22_branch2c"
  param {
    lr_mult: 0.0
  }
  param {
    lr_mult: 0.0
  }
  scale_param {
    bias_term: true
  }
}
layer {
  name: "res4b22"
  type: "Eltwise"
  bottom: "res4b21"
  bottom: "res4b22_branch2c"
  top: "res4b22"
  eltwise_param {
    operation: SUM
  }
}
layer {
  name: "res4b22_relu"
  type: "ReLU"
  bottom: "res4b22"
  top: "res4b22"
}
layer {
  name: "res5a_branch1"
  type: "Convolution"
  bottom: "res4b22"
  top: "res5a_branch1"
  param {
    lr_mult: 1.0
  }
  convolution_param {
    num_output: 2048
    bias_term: false
    pad: 0
    kernel_size: 1
    stride: 1
  }
}
layer {
  name: "bn5a_branch1"
  type: "BatchNorm"
  bottom: "res5a_branch1"
  top: "res5a_branch1"
  param {
    lr_mult: 0.0
  }
  param {
    lr_mult: 0.0
  }
  param {
    lr_mult: 0.0
  }
  batch_norm_param {
    use_global_stats: true
  }
}
layer {
  name: "scale5a_branch1"
  type: "Scale"
  bottom: "res5a_branch1"
  top: "res5a_branch1"
  param {
    lr_mult: 0.0
  }
  param {
    lr_mult: 0.0
  }
  scale_param {
    bias_term: true
  }
}
layer {
  name: "res5a_branch2a"
  type: "Convolution"
  bottom: "res4b22"
  top: "res5a_branch2a"
  param {
    lr_mult: 1.0
  }
  convolution_param {
    num_output: 512
    bias_term: false
    pad: 0
    kernel_size: 1
    stride: 1
  }
}
layer {
  name: "bn5a_branch2a"
  type: "BatchNorm"
  bottom: "res5a_branch2a"
  top: "res5a_branch2a"
  param {
    lr_mult: 0.0
  }
  param {
    lr_mult: 0.0
  }
  param {
    lr_mult: 0.0
  }
  batch_norm_param {
    use_global_stats: true
  }
}
layer {
  name: "scale5a_branch2a"
  type: "Scale"
  bottom: "res5a_branch2a"
  top: "res5a_branch2a"
  param {
    lr_mult: 0.0
  }
  param {
    lr_mult: 0.0
  }
  scale_param {
    bias_term: true
  }
}
layer {
  name: "res5a_branch2a_relu"
  type: "ReLU"
  bottom: "res5a_branch2a"
  top: "res5a_branch2a"
}
layer {
  name: "res5a_branch2b"
  type: "Convolution"
  bottom: "res5a_branch2a"
  top: "res5a_branch2b"
  param {
    lr_mult: 1.0
  }
  convolution_param {
    num_output: 512
    bias_term: false
    pad: 4
    kernel_size: 3
    stride: 1
    dilation: 4
  }
}
layer {
  name: "bn5a_branch2b"
  type: "BatchNorm"
  bottom: "res5a_branch2b"
  top: "res5a_branch2b"
  param {
    lr_mult: 0.0
  }
  param {
    lr_mult: 0.0
  }
  param {
    lr_mult: 0.0
  }
  batch_norm_param {
    use_global_stats: true
  }
}
layer {
  name: "scale5a_branch2b"
  type: "Scale"
  bottom: "res5a_branch2b"
  top: "res5a_branch2b"
  param {
    lr_mult: 0.0
  }
  param {
    lr_mult: 0.0
  }
  scale_param {
    bias_term: true
  }
}
layer {
  name: "res5a_branch2b_relu"
  type: "ReLU"
  bottom: "res5a_branch2b"
  top: "res5a_branch2b"
}
layer {
  name: "res5a_branch2c"
  type: "Convolution"
  bottom: "res5a_branch2b"
  top: "res5a_branch2c"
  param {
    lr_mult: 1.0
  }
  convolution_param {
    num_output: 2048
    bias_term: false
    pad: 0
    kernel_size: 1
    stride: 1
  }
}
layer {
  name: "bn5a_branch2c"
  type: "BatchNorm"
  bottom: "res5a_branch2c"
  top: "res5a_branch2c"
  param {
    lr_mult: 0.0
  }
  param {
    lr_mult: 0.0
  }
  param {
    lr_mult: 0.0
  }
  batch_norm_param {
    use_global_stats: true
  }
}
layer {
  name: "scale5a_branch2c"
  type: "Scale"
  bottom: "res5a_branch2c"
  top: "res5a_branch2c"
  param {
    lr_mult: 0.0
  }
  param {
    lr_mult: 0.0
  }
  scale_param {
    bias_term: true
  }
}
layer {
  name: "res5a"
  type: "Eltwise"
  bottom: "res5a_branch1"
  bottom: "res5a_branch2c"
  top: "res5a"
  eltwise_param {
    operation: SUM
  }
}
layer {
  name: "res5a_relu"
  type: "ReLU"
  bottom: "res5a"
  top: "res5a"
}
layer {
  name: "res5b_branch2a"
  type: "Convolution"
  bottom: "res5a"
  top: "res5b_branch2a"
  param {
    lr_mult: 1.0
  }
  convolution_param {
    num_output: 512
    bias_term: false
    pad: 0
    kernel_size: 1
    stride: 1
  }
}
layer {
  name: "bn5b_branch2a"
  type: "BatchNorm"
  bottom: "res5b_branch2a"
  top: "res5b_branch2a"
  param {
    lr_mult: 0.0
  }
  param {
    lr_mult: 0.0
  }
  param {
    lr_mult: 0.0
  }
  batch_norm_param {
    use_global_stats: true
  }
}
layer {
  name: "scale5b_branch2a"
  type: "Scale"
  bottom: "res5b_branch2a"
  top: "res5b_branch2a"
  param {
    lr_mult: 0.0
  }
  param {
    lr_mult: 0.0
  }
  scale_param {
    bias_term: true
  }
}
layer {
  name: "res5b_branch2a_relu"
  type: "ReLU"
  bottom: "res5b_branch2a"
  top: "res5b_branch2a"
}
layer {
  name: "res5b_branch2b"
  type: "Convolution"
  bottom: "res5b_branch2a"
  top: "res5b_branch2b"
  param {
    lr_mult: 1.0
  }
  convolution_param {
    num_output: 512
    bias_term: false
    pad: 4
    kernel_size: 3
    stride: 1
    dilation: 4
  }
}
layer {
  name: "bn5b_branch2b"
  type: "BatchNorm"
  bottom: "res5b_branch2b"
  top: "res5b_branch2b"
  param {
    lr_mult: 0.0
  }
  param {
    lr_mult: 0.0
  }
  param {
    lr_mult: 0.0
  }
  batch_norm_param {
    use_global_stats: true
  }
}
layer {
  name: "scale5b_branch2b"
  type: "Scale"
  bottom: "res5b_branch2b"
  top: "res5b_branch2b"
  param {
    lr_mult: 0.0
  }
  param {
    lr_mult: 0.0
  }
  scale_param {
    bias_term: true
  }
}
layer {
  name: "res5b_branch2b_relu"
  type: "ReLU"
  bottom: "res5b_branch2b"
  top: "res5b_branch2b"
}
layer {
  name: "res5b_branch2c"
  type: "Convolution"
  bottom: "res5b_branch2b"
  top: "res5b_branch2c"
  param {
    lr_mult: 1.0
  }
  convolution_param {
    num_output: 2048
    bias_term: false
    pad: 0
    kernel_size: 1
    stride: 1
  }
}
layer {
  name: "bn5b_branch2c"
  type: "BatchNorm"
  bottom: "res5b_branch2c"
  top: "res5b_branch2c"
  param {
    lr_mult: 0.0
  }
  param {
    lr_mult: 0.0
  }
  param {
    lr_mult: 0.0
  }
  batch_norm_param {
    use_global_stats: true
  }
}
layer {
  name: "scale5b_branch2c"
  type: "Scale"
  bottom: "res5b_branch2c"
  top: "res5b_branch2c"
  param {
    lr_mult: 0.0
  }
  param {
    lr_mult: 0.0
  }
  scale_param {
    bias_term: true
  }
}
layer {
  name: "res5b"
  type: "Eltwise"
  bottom: "res5a"
  bottom: "res5b_branch2c"
  top: "res5b"
  eltwise_param {
    operation: SUM
  }
}
layer {
  name: "res5b_relu"
  type: "ReLU"
  bottom: "res5b"
  top: "res5b"
}
layer {
  name: "res5c_branch2a"
  type: "Convolution"
  bottom: "res5b"
  top: "res5c_branch2a"
  param {
    lr_mult: 1.0
  }
  convolution_param {
    num_output: 512
    bias_term: false
    pad: 0
    kernel_size: 1
    stride: 1
  }
}
layer {
  name: "bn5c_branch2a"
  type: "BatchNorm"
  bottom: "res5c_branch2a"
  top: "res5c_branch2a"
  param {
    lr_mult: 0.0
  }
  param {
    lr_mult: 0.0
  }
  param {
    lr_mult: 0.0
  }
  batch_norm_param {
    use_global_stats: true
  }
}
layer {
  name: "scale5c_branch2a"
  type: "Scale"
  bottom: "res5c_branch2a"
  top: "res5c_branch2a"
  param {
    lr_mult: 0.0
  }
  param {
    lr_mult: 0.0
  }
  scale_param {
    bias_term: true
  }
}
layer {
  name: "res5c_branch2a_relu"
  type: "ReLU"
  bottom: "res5c_branch2a"
  top: "res5c_branch2a"
}
layer {
  name: "res5c_branch2b"
  type: "Convolution"
  bottom: "res5c_branch2a"
  top: "res5c_branch2b"
  param {
    lr_mult: 1.0
  }
  convolution_param {
    num_output: 512
    bias_term: false
    pad: 4
    kernel_size: 3
    stride: 1
    dilation: 4
  }
}
layer {
  name: "bn5c_branch2b"
  type: "BatchNorm"
  bottom: "res5c_branch2b"
  top: "res5c_branch2b"
  param {
    lr_mult: 0.0
  }
  param {
    lr_mult: 0.0
  }
  param {
    lr_mult: 0.0
  }
  batch_norm_param {
    use_global_stats: true
  }
}
layer {
  name: "scale5c_branch2b"
  type: "Scale"
  bottom: "res5c_branch2b"
  top: "res5c_branch2b"
  param {
    lr_mult: 0.0
  }
  param {
    lr_mult: 0.0
  }
  scale_param {
    bias_term: true
  }
}
layer {
  name: "res5c_branch2b_relu"
  type: "ReLU"
  bottom: "res5c_branch2b"
  top: "res5c_branch2b"
}
layer {
  name: "res5c_branch2c"
  type: "Convolution"
  bottom: "res5c_branch2b"
  top: "res5c_branch2c"
  param {
    lr_mult: 1.0
  }
  convolution_param {
    num_output: 2048
    bias_term: false
    pad: 0
    kernel_size: 1
    stride: 1
  }
}
layer {
  name: "bn5c_branch2c"
  type: "BatchNorm"
  bottom: "res5c_branch2c"
  top: "res5c_branch2c"
  param {
    lr_mult: 0.0
  }
  param {
    lr_mult: 0.0
  }
  param {
    lr_mult: 0.0
  }
  batch_norm_param {
    use_global_stats: true
  }
}
layer {
  name: "scale5c_branch2c"
  type: "Scale"
  bottom: "res5c_branch2c"
  top: "res5c_branch2c"
  param {
    lr_mult: 0.0
  }
  param {
    lr_mult: 0.0
  }
  scale_param {
    bias_term: true
  }
}
layer {
  name: "res5c"
  type: "Eltwise"
  bottom: "res5b"
  bottom: "res5c_branch2c"
  top: "res5c"
  eltwise_param {
    operation: SUM
  }
}
layer {
  name: "res5c_relu"
  type: "ReLU"
  bottom: "res5c"
  top: "res5c"
}
layer {
  name: "res5c_out_dimred"
  type: "Convolution"
  bottom: "res5c"
  top: "res5c_out_dimred"
  param {
    lr_mult: 1.0
    decay_mult: 1.0
  }
  convolution_param {
    num_output: 512
    bias_term: false
    pad: 1
    kernel_size: 3
    stride: 1
    weight_filler {
      type: "xavier"
    }
  }
}
layer {
  name: "stage1_b1_prev_relu"
  type: "ReLU"
  bottom: "res5c_out_dimred"
  top: "res5c_out_dimred"
}
layer {
  name: "stage1_b1_conv"
  type: "Convolution"
  bottom: "res5c_out_dimred"
  top: "stage1_b1_conv"
  param {
    lr_mult: 1.0
    decay_mult: 1.0
  }
  param {
    lr_mult: 2.0
    decay_mult: 0.0
  }
  convolution_param {
    num_output: 512
    bias_term: true
    pad: 1
    kernel_size: 3
    stride: 1
    weight_filler {
      type: "xavier"
    }
    bias_filler {
      type: "constant"
      value: 0.0
    }
  }
}
layer {
  name: "stage1_b1_conv_relu"
  type: "ReLU"
  bottom: "stage1_b1_conv"
  top: "stage1_b1_conv_relu"
}
layer {
  name: "stage1_b1_conv_relu_out_dimred"
  type: "Convolution"
  bottom: "stage1_b1_conv_relu"
  top: "stage1_b1_conv_relu_out_dimred"
  param {
    lr_mult: 1.0
    decay_mult: 1.0
  }
  convolution_param {
    num_output: 512
    bias_term: false
    pad: 1
    kernel_size: 3
    stride: 1
    weight_filler {
      type: "xavier"
    }
  }
}
layer {
  name: "stage1_b1_joint"
  type: "Eltwise"
  bottom: "res5c_out_dimred"
  bottom: "stage1_b1_conv_relu_out_dimred"
  top: "stage1_b1_joint"
  eltwise_param {
    operation: SUM
  }
}
layer {
  name: "stage1_b2_prev_relu"
  type: "ReLU"
  bottom: "stage1_b1_joint"
  top: "stage1_b1_joint"
}
layer {
  name: "stage1_b2_conv"
  type: "Convolution"
  bottom: "stage1_b1_joint"
  top: "stage1_b2_conv"
  param {
    lr_mult: 1.0
    decay_mult: 1.0
  }
  param {
    lr_mult: 2.0
    decay_mult: 0.0
  }
  convolution_param {
    num_output: 512
    bias_term: true
    pad: 1
    kernel_size: 3
    stride: 1
    weight_filler {
      type: "xavier"
    }
    bias_filler {
      type: "constant"
      value: 0.0
    }
  }
}
layer {
  name: "stage1_b2_conv_relu"
  type: "ReLU"
  bottom: "stage1_b2_conv"
  top: "stage1_b2_conv_relu"
}
layer {
  name: "stage1_b2_conv_relu_out_dimred"
  type: "Convolution"
  bottom: "stage1_b2_conv_relu"
  top: "stage1_b2_conv_relu_out_dimred"
  param {
    lr_mult: 1.0
    decay_mult: 1.0
  }
  convolution_param {
    num_output: 512
    bias_term: false
    pad: 1
    kernel_size: 3
    stride: 1
    weight_filler {
      type: "xavier"
    }
  }
}
layer {
  name: "stage1_b2_joint"
  type: "Eltwise"
  bottom: "stage1_b1_joint"
  bottom: "stage1_b2_conv_relu_out_dimred"
  top: "stage1_b2_joint"
  eltwise_param {
    operation: SUM
  }
}
layer {
  name: "pred_cls"
  type: "Convolution"
  bottom: "stage1_b2_joint"
  top: "pred_cls"
  param {
    lr_mult: 1.0
    decay_mult: 1.0
  }
  param {
    lr_mult: 2.0
    decay_mult: 0.0
  }
  convolution_param {
    num_output: 19
    bias_term: true
    pad: 0
    kernel_size: 1
    stride: 1
    weight_filler {
      type: "xavier"
    }
    bias_filler {
      type: "constant"
      value: 0.0
    }
  }
}
layer {
  name: "pred_up_cls"
  type: "Deconvolution"
  bottom: "pred_cls"
  top: "pred_up_cls"
  param {
    lr_mult: 0.0
  }
  convolution_param {
    num_output: 19
    bias_term: false
    kernel_size: 16
    stride: 8
  }
}
layer {
  name: "score_cls"
  type: "Crop"
  bottom: "pred_up_cls"
  bottom: "data"
  top: "score_cls"
  crop_param {
    axis: 2
    offset: 4
  }
}
layer {
  name: "sigmoid_cls"
  type: "Sigmoid"
  bottom: "score_cls"
  top: "sigmoid_cls"
}
layer {
  name: "conv1_dsn"
  type: "Convolution"
  bottom: "conv1"
  top: "conv1_dsn"
  param {
    lr_mult: 1.0
    decay_mult: 1.0
  }
  convolution_param {
    num_output: 64
    bias_term: false
    pad: 1
    kernel_size: 3
    stride: 1
    weight_filler {
      type: "xavier"
    }
  }
}
layer {
  name: "conv1_b1_prev_relu"
  type: "ReLU"
  bottom: "conv1_dsn"
  top: "conv1_dsn"
}
layer {
  name: "conv1_b1_conv"
  type: "Convolution"
  bottom: "conv1_dsn"
  top: "conv1_b1_conv"
  param {
    lr_mult: 1.0
    decay_mult: 1.0
  }
  param {
    lr_mult: 2.0
    decay_mult: 0.0
  }
  convolution_param {
    num_output: 64
    bias_term: true
    pad: 1
    kernel_size: 3
    stride: 1
    weight_filler {
      type: "xavier"
    }
    bias_filler {
      type: "constant"
      value: 0.0
    }
  }
}
layer {
  name: "conv1_b1_conv_relu"
  type: "ReLU"
  bottom: "conv1_b1_conv"
  top: "conv1_b1_conv_relu"
}
layer {
  name: "conv1_b1_conv_relu_out_dimred"
  type: "Convolution"
  bottom: "conv1_b1_conv_relu"
  top: "conv1_b1_conv_relu_out_dimred"
  param {
    lr_mult: 1.0
    decay_mult: 1.0
  }
  convolution_param {
    num_output: 64
    bias_term: false
    pad: 1
    kernel_size: 3
    stride: 1
    weight_filler {
      type: "xavier"
    }
  }
}
layer {
  name: "conv1_b1_joint"
  type: "Eltwise"
  bottom: "conv1_dsn"
  bottom: "conv1_b1_conv_relu_out_dimred"
  top: "conv1_b1_joint"
  eltwise_param {
    operation: SUM
  }
}
layer {
  name: "conv1_b2_prev_relu"
  type: "ReLU"
  bottom: "conv1_b1_joint"
  top: "conv1_b1_joint"
}
layer {
  name: "conv1_b2_conv"
  type: "Convolution"
  bottom: "conv1_b1_joint"
  top: "conv1_b2_conv"
  param {
    lr_mult: 1.0
    decay_mult: 1.0
  }
  param {
    lr_mult: 2.0
    decay_mult: 0.0
  }
  convolution_param {
    num_output: 64
    bias_term: true
    pad: 1
    kernel_size: 3
    stride: 1
    weight_filler {
      type: "xavier"
    }
    bias_filler {
      type: "constant"
      value: 0.0
    }
  }
}
layer {
  name: "conv1_b2_conv_relu"
  type: "ReLU"
  bottom: "conv1_b2_conv"
  top: "conv1_b2_conv_relu"
}
layer {
  name: "conv1_b2_conv_relu_out_dimred"
  type: "Convolution"
  bottom: "conv1_b2_conv_relu"
  top: "conv1_b2_conv_relu_out_dimred"
  param {
    lr_mult: 1.0
    decay_mult: 1.0
  }
  convolution_param {
    num_output: 64
    bias_term: false
    pad: 1
    kernel_size: 3
    stride: 1
    weight_filler {
      type: "xavier"
    }
  }
}
layer {
  name: "conv1_b2_joint"
  type: "Eltwise"
  bottom: "conv1_b1_joint"
  bottom: "conv1_b2_conv_relu_out_dimred"
  top: "conv1_b2_joint"
  eltwise_param {
    operation: SUM
  }
}
layer {
  name: "score1"
  type: "Convolution"
  bottom: "conv1_b2_joint"
  top: "score1"
  param {
    lr_mult: 10.0
    decay_mult: 1.0
  }
  param {
    lr_mult: 20.0
    decay_mult: 0.0
  }
  convolution_param {
    num_output: 1
    bias_term: true
    pad: 0
    kernel_size: 1
    stride: 1
    weight_filler {
      type: "xavier"
    }
    bias_filler {
      type: "constant"
      value: 0.0
    }
  }
}
layer {
  name: "sigmoid1"
  type: "Sigmoid"
  bottom: "score1"
  top: "sigmoid1"
}
layer {
  name: "conv2_dsn"
  type: "Convolution"
  bottom: "res2c"
  top: "conv2_dsn"
  param {
    lr_mult: 1.0
    decay_mult: 1.0
  }
  convolution_param {
    num_output: 128
    bias_term: false
    pad: 1
    kernel_size: 3
    stride: 1
    weight_filler {
      type: "xavier"
    }
  }
}
layer {
  name: "conv2_b1_prev_relu"
  type: "ReLU"
  bottom: "conv2_dsn"
  top: "conv2_dsn"
}
layer {
  name: "conv2_b1_conv"
  type: "Convolution"
  bottom: "conv2_dsn"
  top: "conv2_b1_conv"
  param {
    lr_mult: 1.0
    decay_mult: 1.0
  }
  param {
    lr_mult: 2.0
    decay_mult: 0.0
  }
  convolution_param {
    num_output: 128
    bias_term: true
    pad: 1
    kernel_size: 3
    stride: 1
    weight_filler {
      type: "xavier"
    }
    bias_filler {
      type: "constant"
      value: 0.0
    }
  }
}
layer {
  name: "conv2_b1_conv_relu"
  type: "ReLU"
  bottom: "conv2_b1_conv"
  top: "conv2_b1_conv_relu"
}
layer {
  name: "conv2_b1_conv_relu_out_dimred"
  type: "Convolution"
  bottom: "conv2_b1_conv_relu"
  top: "conv2_b1_conv_relu_out_dimred"
  param {
    lr_mult: 1.0
    decay_mult: 1.0
  }
  convolution_param {
    num_output: 128
    bias_term: false
    pad: 1
    kernel_size: 3
    stride: 1
    weight_filler {
      type: "xavier"
    }
  }
}
layer {
  name: "conv2_b1_joint"
  type: "Eltwise"
  bottom: "conv2_dsn"
  bottom: "conv2_b1_conv_relu_out_dimred"
  top: "conv2_b1_joint"
  eltwise_param {
    operation: SUM
  }
}
layer {
  name: "conv2_b2_prev_relu"
  type: "ReLU"
  bottom: "conv2_b1_joint"
  top: "conv2_b1_joint"
}
layer {
  name: "conv2_b2_conv"
  type: "Convolution"
  bottom: "conv2_b1_joint"
  top: "conv2_b2_conv"
  param {
    lr_mult: 1.0
    decay_mult: 1.0
  }
  param {
    lr_mult: 2.0
    decay_mult: 0.0
  }
  convolution_param {
    num_output: 128
    bias_term: true
    pad: 1
    kernel_size: 3
    stride: 1
    weight_filler {
      type: "xavier"
    }
    bias_filler {
      type: "constant"
      value: 0.0
    }
  }
}
layer {
  name: "conv2_b2_conv_relu"
  type: "ReLU"
  bottom: "conv2_b2_conv"
  top: "conv2_b2_conv_relu"
}
layer {
  name: "conv2_b2_conv_relu_out_dimred"
  type: "Convolution"
  bottom: "conv2_b2_conv_relu"
  top: "conv2_b2_conv_relu_out_dimred"
  param {
    lr_mult: 1.0
    decay_mult: 1.0
  }
  convolution_param {
    num_output: 128
    bias_term: false
    pad: 1
    kernel_size: 3
    stride: 1
    weight_filler {
      type: "xavier"
    }
  }
}
layer {
  name: "conv2_b2_joint"
  type: "Eltwise"
  bottom: "conv2_b1_joint"
  bottom: "conv2_b2_conv_relu_out_dimred"
  top: "conv2_b2_joint"
  eltwise_param {
    operation: SUM
  }
}
layer {
  name: "pred2"
  type: "Convolution"
  bottom: "conv2_b2_joint"
  top: "pred2"
  param {
    lr_mult: 10.0
    decay_mult: 1.0
  }
  param {
    lr_mult: 20.0
    decay_mult: 0.0
  }
  convolution_param {
    num_output: 1
    bias_term: true
    pad: 0
    kernel_size: 1
    stride: 1
    weight_filler {
      type: "xavier"
    }
    bias_filler {
      type: "constant"
      value: 0.0
    }
  }
}
layer {
  name: "pred_up2"
  type: "Deconvolution"
  bottom: "pred2"
  top: "pred_up2"
  param {
    lr_mult: 0.0
  }
  convolution_param {
    num_output: 1
    bias_term: false
    kernel_size: 4
    stride: 2
  }
}
layer {
  name: "score2"
  type: "Crop"
  bottom: "pred_up2"
  bottom: "data"
  top: "score2"
  crop_param {
    axis: 2
    offset: 1
  }
}
layer {
  name: "sigmoid2"
  type: "Sigmoid"
  bottom: "score2"
  top: "sigmoid2"
}
layer {
  name: "conv3_dsn"
  type: "Convolution"
  bottom: "res3b3"
  top: "conv3_dsn"
  param {
    lr_mult: 1.0
    decay_mult: 1.0
  }
  convolution_param {
    num_output: 128
    bias_term: false
    pad: 1
    kernel_size: 3
    stride: 1
    weight_filler {
      type: "xavier"
    }
  }
}
layer {
  name: "conv3_b1_prev_relu"
  type: "ReLU"
  bottom: "conv3_dsn"
  top: "conv3_dsn"
}
layer {
  name: "conv3_b1_conv"
  type: "Convolution"
  bottom: "conv3_dsn"
  top: "conv3_b1_conv"
  param {
    lr_mult: 1.0
    decay_mult: 1.0
  }
  param {
    lr_mult: 2.0
    decay_mult: 0.0
  }
  convolution_param {
    num_output: 128
    bias_term: true
    pad: 1
    kernel_size: 3
    stride: 1
    weight_filler {
      type: "xavier"
    }
    bias_filler {
      type: "constant"
      value: 0.0
    }
  }
}
layer {
  name: "conv3_b1_conv_relu"
  type: "ReLU"
  bottom: "conv3_b1_conv"
  top: "conv3_b1_conv_relu"
}
layer {
  name: "conv3_b1_conv_relu_out_dimred"
  type: "Convolution"
  bottom: "conv3_b1_conv_relu"
  top: "conv3_b1_conv_relu_out_dimred"
  param {
    lr_mult: 1.0
    decay_mult: 1.0
  }
  convolution_param {
    num_output: 128
    bias_term: false
    pad: 1
    kernel_size: 3
    stride: 1
    weight_filler {
      type: "xavier"
    }
  }
}
layer {
  name: "conv3_b1_joint"
  type: "Eltwise"
  bottom: "conv3_dsn"
  bottom: "conv3_b1_conv_relu_out_dimred"
  top: "conv3_b1_joint"
  eltwise_param {
    operation: SUM
  }
}
layer {
  name: "conv3_b2_prev_relu"
  type: "ReLU"
  bottom: "conv3_b1_joint"
  top: "conv3_b1_joint"
}
layer {
  name: "conv3_b2_conv"
  type: "Convolution"
  bottom: "conv3_b1_joint"
  top: "conv3_b2_conv"
  param {
    lr_mult: 1.0
    decay_mult: 1.0
  }
  param {
    lr_mult: 2.0
    decay_mult: 0.0
  }
  convolution_param {
    num_output: 128
    bias_term: true
    pad: 1
    kernel_size: 3
    stride: 1
    weight_filler {
      type: "xavier"
    }
    bias_filler {
      type: "constant"
      value: 0.0
    }
  }
}
layer {
  name: "conv3_b2_conv_relu"
  type: "ReLU"
  bottom: "conv3_b2_conv"
  top: "conv3_b2_conv_relu"
}
layer {
  name: "conv3_b2_conv_relu_out_dimred"
  type: "Convolution"
  bottom: "conv3_b2_conv_relu"
  top: "conv3_b2_conv_relu_out_dimred"
  param {
    lr_mult: 1.0
    decay_mult: 1.0
  }
  convolution_param {
    num_output: 128
    bias_term: false
    pad: 1
    kernel_size: 3
    stride: 1
    weight_filler {
      type: "xavier"
    }
  }
}
layer {
  name: "conv3_b2_joint"
  type: "Eltwise"
  bottom: "conv3_b1_joint"
  bottom: "conv3_b2_conv_relu_out_dimred"
  top: "conv3_b2_joint"
  eltwise_param {
    operation: SUM
  }
}
layer {
  name: "pred3"
  type: "Convolution"
  bottom: "conv3_b2_joint"
  top: "pred3"
  param {
    lr_mult: 10.0
    decay_mult: 1.0
  }
  param {
    lr_mult: 20.0
    decay_mult: 0.0
  }
  convolution_param {
    num_output: 1
    bias_term: true
    pad: 0
    kernel_size: 1
    stride: 1
    weight_filler {
      type: "xavier"
    }
    bias_filler {
      type: "constant"
      value: 0.0
    }
  }
}
layer {
  name: "pred_up3"
  type: "Deconvolution"
  bottom: "pred3"
  top: "pred_up3"
  param {
    lr_mult: 0.0
  }
  convolution_param {
    num_output: 1
    bias_term: false
    kernel_size: 8
    stride: 4
  }
}
layer {
  name: "score3"
  type: "Crop"
  bottom: "pred_up3"
  bottom: "data"
  top: "score3"
  crop_param {
    axis: 2
    offset: 2
  }
}
layer {
  name: "sigmoid3"
  type: "Sigmoid"
  bottom: "score3"
  top: "sigmoid3"
}
layer {
  name: "conv4_dsn"
  type: "Convolution"
  bottom: "res4b22"
  top: "conv4_dsn"
  param {
    lr_mult: 1.0
    decay_mult: 1.0
  }
  convolution_param {
    num_output: 128
    bias_term: false
    pad: 1
    kernel_size: 3
    stride: 1
    weight_filler {
      type: "xavier"
    }
  }
}
layer {
  name: "conv4_b1_prev_relu"
  type: "ReLU"
  bottom: "conv4_dsn"
  top: "conv4_dsn"
}
layer {
  name: "conv4_b1_conv"
  type: "Convolution"
  bottom: "conv4_dsn"
  top: "conv4_b1_conv"
  param {
    lr_mult: 1.0
    decay_mult: 1.0
  }
  param {
    lr_mult: 2.0
    decay_mult: 0.0
  }
  convolution_param {
    num_output: 128
    bias_term: true
    pad: 1
    kernel_size: 3
    stride: 1
    weight_filler {
      type: "xavier"
    }
    bias_filler {
      type: "constant"
      value: 0.0
    }
  }
}
layer {
  name: "conv4_b1_conv_relu"
  type: "ReLU"
  bottom: "conv4_b1_conv"
  top: "conv4_b1_conv_relu"
}
layer {
  name: "conv4_b1_conv_relu_out_dimred"
  type: "Convolution"
  bottom: "conv4_b1_conv_relu"
  top: "conv4_b1_conv_relu_out_dimred"
  param {
    lr_mult: 1.0
    decay_mult: 1.0
  }
  convolution_param {
    num_output: 128
    bias_term: false
    pad: 1
    kernel_size: 3
    stride: 1
    weight_filler {
      type: "xavier"
    }
  }
}
layer {
  name: "conv4_b1_joint"
  type: "Eltwise"
  bottom: "conv4_dsn"
  bottom: "conv4_b1_conv_relu_out_dimred"
  top: "conv4_b1_joint"
  eltwise_param {
    operation: SUM
  }
}
layer {
  name: "conv4_b2_prev_relu"
  type: "ReLU"
  bottom: "conv4_b1_joint"
  top: "conv4_b1_joint"
}
layer {
  name: "conv4_b2_conv"
  type: "Convolution"
  bottom: "conv4_b1_joint"
  top: "conv4_b2_conv"
  param {
    lr_mult: 1.0
    decay_mult: 1.0
  }
  param {
    lr_mult: 2.0
    decay_mult: 0.0
  }
  convolution_param {
    num_output: 128
    bias_term: true
    pad: 1
    kernel_size: 3
    stride: 1
    weight_filler {
      type: "xavier"
    }
    bias_filler {
      type: "constant"
      value: 0.0
    }
  }
}
layer {
  name: "conv4_b2_conv_relu"
  type: "ReLU"
  bottom: "conv4_b2_conv"
  top: "conv4_b2_conv_relu"
}
layer {
  name: "conv4_b2_conv_relu_out_dimred"
  type: "Convolution"
  bottom: "conv4_b2_conv_relu"
  top: "conv4_b2_conv_relu_out_dimred"
  param {
    lr_mult: 1.0
    decay_mult: 1.0
  }
  convolution_param {
    num_output: 128
    bias_term: false
    pad: 1
    kernel_size: 3
    stride: 1
    weight_filler {
      type: "xavier"
    }
  }
}
layer {
  name: "conv4_b2_joint"
  type: "Eltwise"
  bottom: "conv4_b1_joint"
  bottom: "conv4_b2_conv_relu_out_dimred"
  top: "conv4_b2_joint"
  eltwise_param {
    operation: SUM
  }
}
layer {
  name: "pred4"
  type: "Convolution"
  bottom: "conv4_b2_joint"
  top: "pred4"
  param {
    lr_mult: 10.0
    decay_mult: 1.0
  }
  param {
    lr_mult: 20.0
    decay_mult: 0.0
  }
  convolution_param {
    num_output: 1
    bias_term: true
    pad: 0
    kernel_size: 1
    stride: 1
    weight_filler {
      type: "xavier"
    }
    bias_filler {
      type: "constant"
      value: 0.0
    }
  }
}
layer {
  name: "pred_up4"
  type: "Deconvolution"
  bottom: "pred4"
  top: "pred_up4"
  param {
    lr_mult: 0.0
  }
  convolution_param {
    num_output: 1
    bias_term: false
    kernel_size: 16
    stride: 8
  }
}
layer {
  name: "score4"
  type: "Crop"
  bottom: "pred_up4"
  bottom: "data"
  top: "score4"
  crop_param {
    axis: 2
    offset: 4
  }
}
layer {
  name: "sigmoid4"
  type: "Sigmoid"
  bottom: "score4"
  top: "sigmoid4"
}
layer {
  name: "score_cls0"
  type: "Slice"
  bottom: "score_cls"
  top: "score_cls0"
  top: "score_cls1"
  top: "score_cls2"
  top: "score_cls3"
  top: "score_cls4"
  top: "score_cls5"
  top: "score_cls6"
  top: "score_cls7"
  top: "score_cls8"
  top: "score_cls9"
  top: "score_cls10"
  top: "score_cls11"
  top: "score_cls12"
  top: "score_cls13"
  top: "score_cls14"
  top: "score_cls15"
  top: "score_cls16"
  top: "score_cls17"
  top: "score_cls18"
  slice_param {
    axis: 1
  }
}
layer {
  name: "concat"
  type: "Concat"
  bottom: "score_cls0"
  bottom: "score4"
  bottom: "score3"
  bottom: "score2"
  bottom: "score1"
  bottom: "score_cls1"
  bottom: "score4"
  bottom: "score3"
  bottom: "score2"
  bottom: "score1"
  bottom: "score_cls2"
  bottom: "score4"
  bottom: "score3"
  bottom: "score2"
  bottom: "score1"
  bottom: "score_cls3"
  bottom: "score4"
  bottom: "score3"
  bottom: "score2"
  bottom: "score1"
  bottom: "score_cls4"
  bottom: "score4"
  bottom: "score3"
  bottom: "score2"
  bottom: "score1"
  bottom: "score_cls5"
  bottom: "score4"
  bottom: "score3"
  bottom: "score2"
  bottom: "score1"
  bottom: "score_cls6"
  bottom: "score4"
  bottom: "score3"
  bottom: "score2"
  bottom: "score1"
  bottom: "score_cls7"
  bottom: "score4"
  bottom: "score3"
  bottom: "score2"
  bottom: "score1"
  bottom: "score_cls8"
  bottom: "score4"
  bottom: "score3"
  bottom: "score2"
  bottom: "score1"
  bottom: "score_cls9"
  bottom: "score4"
  bottom: "score3"
  bottom: "score2"
  bottom: "score1"
  bottom: "score_cls10"
  bottom: "score4"
  bottom: "score3"
  bottom: "score2"
  bottom: "score1"
  bottom: "score_cls11"
  bottom: "score4"
  bottom: "score3"
  bottom: "score2"
  bottom: "score1"
  bottom: "score_cls12"
  bottom: "score4"
  bottom: "score3"
  bottom: "score2"
  bottom: "score1"
  bottom: "score_cls13"
  bottom: "score4"
  bottom: "score3"
  bottom: "score2"
  bottom: "score1"
  bottom: "score_cls14"
  bottom: "score4"
  bottom: "score3"
  bottom: "score2"
  bottom: "score1"
  bottom: "score_cls15"
  bottom: "score4"
  bottom: "score3"
  bottom: "score2"
  bottom: "score1"
  bottom: "score_cls16"
  bottom: "score4"
  bottom: "score3"
  bottom: "score2"
  bottom: "score1"
  bottom: "score_cls17"
  bottom: "score4"
  bottom: "score3"
  bottom: "score2"
  bottom: "score1"
  bottom: "score_cls18"
  bottom: "score4"
  bottom: "score3"
  bottom: "score2"
  bottom: "score1"
  top: "concat"
  concat_param {
    axis: 1
  }
}
layer {
  name: "score_fuse"
  type: "Convolution"
  bottom: "concat"
  top: "score_fuse"
  param {
    lr_mult: 10.0
    decay_mult: 1.0
  }
  param {
    lr_mult: 20.0
    decay_mult: 0.0
  }
  convolution_param {
    num_output: 19
    bias_term: true
    pad: 0
    kernel_size: 1
    group: 19
    stride: 1
    weight_filler {
      type: "xavier"
    }
    bias_filler {
      type: "constant"
      value: 0.0
    }
  }
}
layer {
  name: "sigmoid_fuse"
  type: "Sigmoid"
  bottom: "score_fuse"
  top: "sigmoid_fuse"
}
